jalur-obat/backend/model/route_gnn.pth (torch, 17249 bytes, 13 tensors)

gat1.att_src f4 [1, 2, 32]
0.81605947 0.19750662 0.56178087 0.15167975 0.118776925 -0.4690139 -0.26197797 0.68295985
0.07439153 -0.18215966 -0.17531559 -0.049054954 0.35886225 -0.13197911 0.091169156 -0.09257369
0.18438083 -0.36956924 -0.256467 -0.1467299 -0.5181783 -0.34654075 -0.18197015 -0.09969542
-0.3036309 0.20757812 -0.16534102 -0.55797124 0.020743469 0.41363087 0.061767716 -0.28867334
0.16749315 -0.20019946 0.122130364 0.45545635 -0.016844139 -0.009042593 -0.2881098 0.1695674
-0.12192872 0.016784217 0.44098705 -0.56023824 -0.36347887 -0.08648141 0.19244851 -0.61148214
-0.18585849 0.21587177 0.30260864 -0.014530602 -0.36953658 0.08741696 -0.2960321 0.41655412
-0.24202949 0.3416036 0.1697327 0.11801454 0.008466158 0.5331773 0.09357464 -0.005275935
00000000: 46e9 503f 2d3f 4a3e dfd0 0f3f f051 1b3e
00000010: 5141 f33d 9722 f0be fa21 86be 75d6 2e3f
00000020: 965a 983d 1088 3abe ee85 33be d9ed 48bd
00000030: cbbc b73e 8825 07be e5b6 ba3d 4697 bdbd
00000040: 54ce 3c3e 2e38 bdbe a54f 83be 5d40 16be
00000050: 55a7 04bf ca6d b1be 6256 3abe 1d2d ccbd
00000060: 8275 9bbe 5c8f 543e 284f 29be 34d7 0ebf
00000070: 35ee a93c 6dc7 d33e 2500 7d3d fecc 93be
00000080: 5383 2b3e 1601 4dbe 7c1f fa3d 9331 e93e
00000090: b8fc 89bc 6227 14bc 2183 93be 14a3 2d3e
000000a0: c4b5 f9bd 0e7f 893c 0ec9 e13e c66b 0fbf
000000b0: e719 babe 2a1d b1bd 3911 453e 188a 1cbf
000000c0: b051 3ebe 7d0d 5d3e 85ef 9a3e c311 6ebc
000000d0: e633 bdbe aa07 b33d 8591 97be 9546 d53e
000000e0: 94d6 77be abe6 ae3e 69ce 2d3e 9bb1 f13d
000000f0: a4b5 0a3c 4f7e 083f 10a4 bf3d c0e1 acbb

gat1.att_dst f4 [1, 2, 32]
-0.057508208 0.13303645 -0.28832248 0.48474032 -0.098625556 0.44529632 0.025074048 0.10582973
-0.1460959 -0.11256783 0.14945713 -0.12465156 0.1683483 0.3801309 0.29031527 0.5450019
-0.3982657 0.25272614 0.021522066 0.3253978 -0.31480068 0.42680767 0.44199684 0.25332192
0.14275172 0.59331125 -0.1585159 -0.15271647 0.28665718 -0.15782721 -0.3069664 -0.065053955
0.24423826 0.11328096 0.05011182 0.20774241 -0.017373877 0.17151709 -0.39394513 -0.070657045
-0.44656223 -0.23031847 -0.03108534 -0.28675935 -0.14837202 -0.29753718 -0.08801497 0.2526694
-0.07598458 0.070382975 0.30688122 0.28730044 -0.4063078 -0.20490049 0.20220336 -0.20882373
-0.5035845 0.2329105 -0.15851553 0.13628939 -0.30588195 -0.16224942 0.23484075 0.08800358
00000000: ba8d 6bbd b53a 083e 019f 93be e22f f83e
00000010: 32fc c9bd e1fd e33e 1768 cd3c 42bd d83d
00000020: 2a9a 15be f689 e6bd 4a0b 193e 5149 ffbd
00000030: 7f63 2c3e 84a0 c23e 34a4 943e 3f85 0b3f
00000040: 7be9 cbbe 5265 813e 0b4f b03c 8a9a a63e
00000050: 8e2d a1be 8986 da3e 694d e23e 69b3 813e
00000060: 822d 123e 3fe3 173f fe51 22be b561 1cbe
00000070: bbc4 923e 759d 21be b32a 9dbe 023b 85bd
00000080: 9819 7a3e d9ff e73d 0d42 4d3d 6dba 543e
00000090: a953 8ebc 2da2 2f3e 2db3 c9be a4b4 90bd
000000a0: cea3 e4be 9bd8 6bbe afa6 febc 1fd2 92be
000000b0: d6ee 17be cb56 98be 3141 b4bd e25d 813e
000000c0: ce9d 9bbd f324 903d 891f 9d3e 0b19 933e
000000d0: 9307 d0be 6fd1 51be 660e 4f3e e3d5 55be
000000e0: eaea 00bf 1780 6e3e e551 22be 728f 0b3e
000000f0: 8f9c 9cbe b624 26be 187a 703e 393b b43d

gat1.att_edge f4 [1, 2, 32]
-0.077464126 -0.48552543 0.14781938 0.034933515 -0.035818085 -0.5009198 0.32956144 -0.18955563
-0.26703838 -0.098953836 -0.18065245 0.19347773 0.32219422 -0.298511 -0.3527442 0.27035606
-0.5360512 -0.19768117 0.10789625 0.34720004 0.49568895 -0.46305293 0.071133316 -0.1824598
-0.35177946 -0.32761645 -0.3723032 0.28470516 -0.22142264 -0.54772395 -0.2544583 -0.03732977
0.1806629 0.31854156 0.05154703 0.017005688 0.22653913 -0.290883 -0.20615242 0.49237105
0.42423195 -0.010390345 -0.01081451 -0.2372276 -0.09507686 -0.043761127 0.16855831 0.4115384
0.10984539 0.18617968 0.26377875 -0.08342275 0.3467755 0.067198984 -0.055651974 -0.38238394
-0.14812908 -0.36363977 -0.08025643 0.16156106 0.020278577 -0.123704836 -0.104316175 -0.074401066
00000000: 83a5 9ebd ca96 f8be f75d 173e 7216 0f3d
00000010: fcb5 12bd 483c 00bf 47bc a83e df1a 42be
00000020: 41b9 88be 4fa8 cabd f5fc 38be 071f 463e
00000030: a4f6 a43e 6fd6 98be e39a b4be 1c6c 8a3e
00000040: a73a 09bf ef6c 4abe b6f8 dc3d 34c4 b13e
00000050: f1ca fd3e 4615 edbe 58ae 913d bed6 3abe
00000060: 701c b4be 58bd a7be 869e bebe e0c4 913e
00000070: 9ebc 62be a337 0cbf 5c48 82be 1ae7 18bd
00000080: b2ff 383e e117 a33e fb22 533d 834f 8b3c
00000090: e0f9 673e 9eee 94be 9f19 53be 0f18 fc3e
000000a0: ee34 d93e 443c 2abc 582f 31bc cbeb 72be
000000b0: a8b7 c2bd de3e 33bd 8d9a 2c3e 29b5 d23e
000000c0: 9ff6 e03d e3a5 3e3e 020e 873e 8cd9 aabd
000000d0: 8f8c b13e 9f9f 893d 53f3 63bd d4c7 c3be
000000e0: 26af 17be fe2e babe 7c5d a4bd 4370 253e
000000f0: 421f a63c f658 fdbd b8a3 d5bd 965f 98bd

gat1.bias f4 [32]
-0.033776753 0.111508995 0.059316073 0.13276437 0.1465819 0.4627202 -0.08739709 -0.03417465
0.10497924 0.13128889 0.03804268 0.05659785 0.13582344 -0.19237849 0.14107227 0.14239433
0.07186441 0.13887507 -0.100753024 0.100123905 -0.09272423 0.086993836 0.1411393 0.14373118
0.16289696 0.08224717 0.12924871 -0.1331594 -0.057786424 0.117518775 -0.024681784 -0.2680488
00000000: 7e59 0abd d45e e43d 69f5 723d 62f3 073e
00000010: 9119 163e a9e9 ec3e 3ffd b2bd b8fa 0bbd
00000020: 5bff d63d 9870 063e a4d2 1b3d 26d3 673d
00000030: 4d15 0b3e defe 44be 4075 103e d2cf 113e
00000040: a62d 933d 4435 0e3e 9a57 cebd c30d cd3d
00000050: 33e6 bdbd d329 b23d d286 103e 442e 133e
00000060: 76ce 263e 3471 a83d c659 043e f05a 08be
00000070: 75b1 6cbd afad f03d 7431 cabc b13d 89be

gat1.lin.weight f4 [64, 5]
0.049410217 -0.08171104 -0.39535856 -0.04517958 -0.13828465 0.18166353 0.12600562 -0.1119183
0.2084701 0.338265 0.34493026 -0.043625183 -0.17753667 -0.08903371 0.31555966 0.2638099
0.18941252 0.1096894 0.23667404 -0.05059962 0.37260213 0.2178014 0.24465455 0.22064616
0.18401064 -0.6283416 0.00010448182 0.40066564 0.43222848 0.8613584 -0.20080149 0.038463593
0.28609505 -0.18561074 0.0396178 0.20340018 -0.012090818 -0.23936605 0.15771058 -0.23720245
0.09949029 0.3475735 0.20450358 0.0224308 0.059453323 0.16446327 0.20992388 0.07843286
0.095785916 -0.07059684 0.08430019 0.20415293 -0.027408466 0.25556844 0.17125171 0.2406022
0.28116482 0.07313156 0.3440554 -0.07742399 0.41105366 0.0945286 -0.11233323 0.19407026
-0.087618835 -0.2249915 0.11559331 0.2887546 0.44041273 0.46147794 -0.023689063 0.35510662
-0.11873185 0.14397211 0.14820239 0.28945097 0.22090621 -0.046030484 0.12764643 0.00672457
0.14102995 -0.16509429 -0.14335418 0.002213593 -0.53708905 0.111879006 -0.1359477 -0.06707466
0.36819538 0.4396884 -0.26218918 -0.097358175 0.1952748 0.0803659 0.29701236 0.23983924
0.04191999 0.23712324 0.15377411 -0.020834202 -0.21539585 0.21085568 -0.12305467 0.21310715
0.44280905 -0.034844615 0.3288401 0.1750761 0.37192202 -0.022602238 0.26941624 0.40535325
-0.16468441 0.21740408 -0.06311779 0.15971765 0.21721311 -0.044411365 0.0914688 0.38836312
-0.53023106 0.38069305 0.22950232 0.40651336 0.78103364 0.30057335 0.31117058 -0.0070404867
0.06526813 0.02653813 0.17887461 -0.11942982 -0.09536986 -0.045436952 0.11448309 -0.50793236
-0.001728512 0.3028345 0.3067358 0.65936553 -0.09059581 0.19710855 0.15563388 -0.33862236
0.17351763 0.2212812 0.026995651 -0.022668561 -0.16054009 0.13877149 0.055337753 -0.11497458
-0.2959481 -0.25122273 0.0015679903 -0.6698434 -0.0008176628 0.6413821 0.15834881 0.60036147
-0.15457244 -0.015050324 -0.13388799 0.28581604 0.06487828 0.16878861 -0.16865599 -0.27979764
-0.118579336 -0.11640562 0.26711842 -0.18415518 -0.103280425 -0.21474557 -0.14992715 0.3623673
-0.061704848 0.012202001 -0.06824607 0.13731284 0.21098112 0.42232767 -0.16764165 0.051534552
0.28380248 0.07811601 -0.053680286 -0.1895157 -0.038290054 0.3055214 -0.20948178 -0.0294444
-0.41468847 0.08721854 0.11949877 -0.15051416 -0.15181589 -0.01817189 -0.05924678 0.22756337
-0.19906572 0.15810698 -0.31989756 0.10238926 -0.0042742155 0.3629987 0.14946051 -0.1739928
0.27571324 0.33730546 0.25070602 0.34470925 -0.1585879 0.29711255 0.17230484 0.025387688
-0.13599697 -0.02463613 0.2156021 0.06028992 -0.07665128 0.30480063 -0.095576055 0.34191942
0.30094928 -0.10753396 -0.1527038 -0.34793732 -0.17053081 -0.020793732 0.33488685 0.3701458
-0.033639077 0.27108166 -0.076173365 0.0153602725 0.03601686 0.05778023 0.25218612 0.1245643
-0.3857194 -0.11436332 0.0494726 0.28991622 0.32999834 0.42358997 0.4168711 -0.2168422
0.2976399 -0.089435704 0.1205918 0.1558476 -0.18838385 0.17216806 -0.06127802 0.12196051
00000000: 5e62 4a3d 1e58 a7bd 706c cabe 390e 39bd
00000010: 7e9a 0dbe 0106 3a3e 9e07 013e 6c35 e5bd
00000020: 3079 553e 1231 ad3e b39a b03e 52b0 32bd
00000030: 2ccc 35be 4e57 b6bd 0991 a13e 1712 873e
00000040: 5bf5 413e d6a4 e03d ae5a 723e 8c41 4fbd
00000050: b5c5 be3e 5507 5f3e b986 7a3e 11f1 613e
00000060: 496d 3c3e ffda 20bf 401d db38 0c24 cd3e
00000070: 0d4d dd3e fc81 5c3f e89e 4dbe 008c 1d3d
00000080: 0d7b 923e be10 3ebe 4646 223d 2348 503e
00000090: 9118 46bc 601c 75be e27e 213e 33e5 72be
000000a0: 91c1 cb3d 27f5 b13e 6369 513e ccc0 b73c
000000b0: 5485 733d 0f69 283e 49f6 563e 68a1 a03d
000000c0: 682b c43d 1395 90bd 94a5 ac3d 770d 513e
000000d0: b887 e0bc ded9 823e 9c5c 2f3e 6c60 763e
000000e0: d6f4 8f3e 00c6 953d 0828 b03e 7890 9ebd
000000f0: a075 d23e 3698 c13d f70e e6bd 5bba 463e
00000100: 8171 b3bd 2c64 66be 2fbc ec3d a5d7 933e
00000110: c77d e13e d646 ec3e 910f c2bc 89d0 b53e
00000120: af29 f3bd 6d6d 133e 5ec2 173e eb32 943e
00000130: 3d35 623e 768a 3cbd bfb5 023e c859 dc3b
00000140: 286a 103e 7a0e 29be 70cb 12be ee11 113b
00000150: ab7e 09bf d220 e53d e035 0bbe 705e 89bd
00000160: 1b84 bc3e d71e e13e a93d 86be b963 c7bd
00000170: 1ef6 473e e196 a43d 0112 983e 6b98 753e
00000180: 4cb4 2b3d 6fd0 723e f676 1d3e 7dac aabc
00000190: bb90 5cbe 8dea 573e 1604 fcbd c338 5a3e
000001a0: deb7 e23e 3ab9 0ebd bb5d a83e 2647 333e
000001b0: 906c be3e 5428 b9bc edf0 893e 768a cf3e
000001c0: 08a3 28be 2d9f 5e3e e643 81bd 068d 233e
000001d0: 1d6d 5e3e b1e8 35bd ff53 bb3d 88d7 c63e
000001e0: 39bd 07bf 33ea c23e a802 6b3e 8522 d03e
000001f0: d2f1 473f c0e4 993e c051 9f3e e2b3 e6bb
00000200: 4cab 853d 7e66 d93c e82a 373e 9f97 f4bd
00000210: 4651 c3bd 191c 3abd 1c76 ea3d db07 02bf
00000220: 3d8f e2ba 200d 9b3e 7a0c 9d3e 2ecc 283f
00000230: 4c8a b9bd d3d6 493e 7d5e 1f3e e95f adbe
00000240: 9bae 313e 8a97 623e fc25 dd3c 6bb3 b9bc
00000250: 9f64 24be 1d1a 0e3e d7a9 623d cb77 ebbd
00000260: 8286 97be 44a0 80be 0685 cd3a db7a 2bbf
00000270: 6c58 56ba 9e31 243f 3126 223e 4ab1 193f
00000280: 3d48 1ebe a295 76bc ef19 09be 7b56 923e
00000290: e7de 843d ecd6 2c3e 28b4 2cbe a341 8fbe
000002a0: b9d9 f2bd 1266 eebd bfc3 883e 2d93 3cbe
000002b0: b084 d3bd 43e6 5bbe 8186 19be 3588 b93e
000002c0: 39be 7cbd e7ea 473c 98c4 8bbd bd9b 0c3e
000002d0: 6f0b 583e 553b d83e 41aa 2bbe e515 533d
000002e0: 8f4e 913e 49fb 9f3d dcdf 5bbd 6710 42be
000002f0: 08d6 1cbd 4d6d 9c3e 6482 56be 6235 f1bc
00000300: 0c52 d4be a29f b23d c5bb f43d 6220 1abe
00000310: a075 1bbe 37dd 94bc c0ac 72bd 5f06 693e
00000320: e2d7 4bbe cce6 213e 9dc9 a3be 76b1 d13d
00000330: b80e 8cbb f7da b93e 2d0c 193e 2b2b 32be
00000340: 492a 8d3e 4db3 ac3e 8a5c 803e bb7d b03e
00000350: de64 22be 231f 983e ae70 303e d7f9 cf3c
00000360: ca42 0bbe b6d1 c9bc ccc6 5c3e 90f2 763d
00000370: 59fb 9cbd d40e 9c3e 61bd c3bd 1010 af3e
00000380: 0616 9a3e c43a dcbd 635e 1cbe d724 b2be
00000390: a19f 2ebe 9e57 aabc 4a76 ab3e c083 bd3e
000003a0: 21c9 09bd 37cb 8a3e c800 9cbd a7a9 7b3c
000003b0: 6a86 133d f6aa 6c3d 8a1e 813e 911b ff3d
000003c0: 037d c5be 5137 eabd c8a3 4a3d e66f 943e
000003d0: 8bf5 a83e c9e0 d83e 2170 d53e e20b 5ebe
000003e0: 4264 983e 112a b7bd d5f8 f63d 8396 1f3e
000003f0: b2e7 40be d34c 303e a9fe 7abd 6fc6 f93d

gat1.lin_edge.weight f4 [64, 1]
0.024642233 -0.34911817 0.32675064 0.12802766 0.11871803 -0.4561022 0.300223 -0.08248943
0.09605415 -0.05175072 -0.063322276 0.09220958 0.31058007 -0.28375298 -0.37383643 0.22640753
-0.30749232 -0.17890799 0.17670515 0.29979125 0.45542726 -0.43636382 0.14911127 -0.096632645
-0.40431046 -0.18040688 -0.45489824 0.30729988 -0.3256231 -0.42836744 -0.3027783 -0.035243012
0.2582082 0.24009041 0.112209216 0.009088906 0.101956256 -0.42660797 -0.26489857 0.16493429
0.29031664 -0.14953646 0.09609225 -0.26207197 -0.079292975 0.08630458 0.26160365 0.3830165
0.10954051 0.25280917 0.30039787 -0.0319292 0.15377949 -0.015353765 -0.09933948 -0.41038653
0.063793376 -0.35265154 -0.083159424 0.09081744 -0.07729342 -0.28196034 -0.0071476595 0.04711106
00000000: 82de c93c 9ebf b2be dc4b a73e af19 033e
00000010: 7022 f33d 3a86 e9be d4b6 993e 38f0 a8bd
00000020: 0ab8 c43d 90f8 53bd 1caf 81bd 60d8 bc3d
00000030: 5a04 9f3e 1248 91be 7d67 bfbe 60d7 673e
00000040: a26f 9dbe a833 37be 32f2 343e 3d7e 993e
00000050: c32d e93e 146b dfbe a0b0 183e 56e7 c5bd
00000060: c801 cfbe 95bc 38be 6ce8 e8be 6956 9d3e
00000070: 12b8 a6be fa52 dbbe c205 9bbe fa5a 10bd
00000080: dd33 843e 43da 753e f2cd e53d a3e9 143c
00000090: 71ce d03d 5c6c dabe c9a0 87be 89e4 283e
000000a0: 62a4 943e 1620 19be 03cc c43d 4c2e 86be
000000b0: 5b64 a2bd 75c0 b03d eaf0 853e bd1a c43e
000000c0: c656 e03d 3470 813e c0cd 993e 31c8 02bd
000000d0: 5f78 1d3e 5c8e 7bbc 7f72 cbbd 2f1e d2be
000000e0: 1aa6 823d be8e b4be 7d4f aabd 7efe b93d
000000f0: 034c 9ebd 1b5d 90be ea36 eabb 87f7 403d

gat2.att_src f4 [1, 2, 32]
0.20370851 -0.51222146 -0.2709763 -0.0072561097 0.26197886 0.5764054 -0.08278818 0.30707148
0.2904916 -0.21587917 0.26821896 -0.16267434 -0.042331696 0.2113764 -0.25625387 -0.4158932
0.18883163 0.03441996 0.025156692 0.14932616 -0.4683765 -0.41622555 0.46464455 -0.045873284
-0.12967952 -0.5222396 0.018275958 -0.43082893 0.35215655 0.5429879 -0.24199732 -0.08928474
-0.15226015 0.059495095 -0.224163 0.3130884 0.44891918 -0.14095005 0.49485582 -0.5371937
-0.24818085 0.17642632 -0.24187307 -0.05444053 -0.015356385 0.4005301 -0.286482 -0.39432645
0.12207729 -0.13934177 0.25106862 -0.38879853 -0.1214224 0.23298785 -0.1745513 -0.17137611
0.4273879 -0.37370244 -0.20028196 0.1583275 0.3636785 -0.12242705 -0.13230506 0.45957485
00000000: f798 503e f220 03bf 68bd 8abe a9c4 edbb
00000010: 1822 863e 4e8f 133f d98c a9bd 7938 9d3e
00000020: 51bb 943e 6e0f 5dbe ff53 893e 1a94 26be
00000030: 0064 2dbd 0e73 583e b533 83be f4ef d4be
00000040: 145d 413e f2fb 0c3d 6815 ce3c f5e8 183e
00000050: 0bcf efbe 841b d5be e4e5 ed3e a0e5 3bbd
00000060: b5ca 04be 7fb1 05bf 76b7 953c 9c95 dcbe
00000070: dd4d b43e 4101 0b3f 25ce 77be ebda b6bd
00000080: 16ea 1bbe 21b1 733d fc8a 65be 1f4d a03e
00000090: bcd8 e53e 3655 10be be5d fd3e 8785 09bf
000000a0: 1f23 7ebe 1aa9 343e 93ad 77be 08fd 5ebd
000000b0: 5999 7bbc 4812 cd3e c5ad 92be 28e5 c9be
000000c0: a903 fa3d 9caf 0ebe 118c 803e 9a10 c7be
000000d0: 4fac f8bd 5e94 6e3e 93bd 32be 387d 2fbe
000000e0: 96d2 da3e ed55 bfbe b716 4dbe 9b20 223e
000000f0: 1134 ba3e 08bb fabd fa7a 07be 654d eb3e

gat2.att_dst f4 [1, 2, 32]
-0.07571969 -0.252959 -0.10225253 -0.33004197 0.1452386 0.3334654 0.0783175 0.32027063
-0.013836231 0.21440554 -0.0015891241 0.006197475 -0.4007221 -0.10194446 -0.10090356 -0.37830457
-0.085884556 0.28204846 0.2742695 0.413697 0.19943011 -0.29912263 -0.32293054 -0.15487601
-0.14711389 -0.47097194 0.2920192 0.26044744 -0.22322643 0.20267928 -0.12567048 0.2780089
0.32242322 0.31983578 0.0016644815 -0.24334118 0.026156932 -0.16247137 -0.16640058 0.1322265
-0.048400752 0.3646069 -0.22162728 -0.12831132 0.20960195 0.12278452 0.076626666 -0.2804157
0.24676044 -0.2776307 0.013033664 -0.18838608 -0.2462847 0.28935087 -0.30463448 -0.42823315
0.28722003 -0.07014696 -0.43939167 -0.06749787 0.18701483 0.35785362 0.3339117 0.32887992
00000000: ed12 9bbd d883 81be c669 d1bd 43fb a8be
00000010: 6db9 143e fabb aa3e ed64 a03d 83fa a33e
00000020: 5cb1 62bc 208d 5b3e 284a d0ba 3014 cb3b
00000030: 722b cdbe 42c8 d0bd 87a6 cebd 23b1 c1be
00000040: 3ee4 afbd a868 903e 0d6d 8c3e 18d0 d33e
00000050: 6837 4c3e 9a26 99be 2757 a5be d197 1ebe
00000060: 06a5 16be 3c23 f1be 8a83 953e 5e59 853e
00000070: 7895 64be 288b 4f3e c3af 00be 2f57 8e3e
00000080: a814 a53e 84c1 a33e bb2a da3a 6e2e 79be
00000090: 1047 d63c e55e 26be ea64 2abe 6266 073e
000000a0: de3f 46bd c1ad ba3e 43f2 62be 0b64 03be
000000b0: e5a1 563e 7376 fb3d 71ee 9c3d a692 8fbe
000000c0: c5ae 7c3e 9c25 8ebe 268b 553c 48e8 40be
000000d0: 0e32 7cbe cc25 943e 0df9 9bbe 6041 dbbe
000000e0: 810e 933e 36a9 8fbd f2f7 e0be 533c 8abd
000000f0: d180 3f3e 9738 b73e 79f6 aa3e f362 a83e

gat2.att_edge f4 [1, 2, 32]
-0.28849044 -0.021605523 -0.5075851 -0.063249715 -0.4321542 -0.41366276 -0.34861878 -0.2731857
0.24742368 -0.010163418 0.018031087 0.1629548 0.032506358 -0.062328383 0.27796543 0.2546344
-0.11591401 -0.50038904 -0.112149775 -0.21073234 0.0040056324 -0.24500507 -0.14334759 0.36892524
-0.0013456144 -0.08696882 -0.3657788 -0.4010326 0.24803632 0.23621681 0.035481423 0.45034575
-0.18568079 0.3361234 0.48752406 -0.24606338 0.033461645 0.11338603 -0.023079822 0.28101096
-0.30767965 -0.17272246 0.28098658 0.12550755 -0.3318221 -0.22204223 0.38530642 0.15455204
0.13814077 0.12069265 0.045187294 -0.39437222 0.30609292 0.37182122 0.057559934 0.37476066
-0.28021517 0.43440083 -0.30974287 0.080940366 -0.19709148 0.43585733 0.16380462 0.16997989
00000000: 05b5 93be 11fe b0bc 19f1 01bf 1189 81bd
00000010: 5143 ddbe 9bcb d3be 297e b2be ffde 8bbe
00000020: a25c 7d3e 7784 26bc eeb5 933c a0dd 263e
00000030: 6325 053d 0c4c 7fbd 7c51 8e3e 715f 823e
00000040: 5364 edbd 7f19 00bf c8ae e5bd 38ca 57be
00000050: ae41 833b 9ce2 7abe b6c9 12be c5e3 bc3e
00000060: 545f b0ba b51c b2bd 5c47 bbbe 2554 cdbe
00000070: 3cfd 7d3e d2e2 713e f854 113d b893 e63e
00000080: 1b23 3ebe 5e18 ac3e c19c f93e 0af8 7bbe
00000090: 140f 093d ef36 e83d e511 bdbc abe0 8f3e
000000a0: 3088 9dbe 28de 30be 79dd 8f3e 0d85 003e
000000b0: 96e4 a9be 0a5f 63be e246 c53e e442 1e3e
000000c0: c674 0d3e b52d f73d 5016 393d 28eb c9be
000000d0: 36b8 9c3e 5a5f be3e f7c3 6b3d a1e0 bf3e
000000e0: 5d78 8fbe c969 de3e 9e96 9ebe 10c4 a53d
000000f0: 59d2 49be b128 df3e 66bc 273e 350f 2e3e

gat2.bias f4 [32]
0.13751982 0.0 0.1830811 -0.07260009 0.1872432 0.10942467 -0.06503422 0.029177897
-0.08483002 -0.0834689 0.0985495 0.18585882 0.07446495 0.1715966 0.0 0.060054988
-0.120908886 -0.08655285 -0.060055055 -0.060059294 -0.06146949 -0.060055044 -0.061720017 0.0
0.18802117 -0.0618339 0.18186541 0.0 0.17796436 0.1806552 0.1833893 0.18302463
00000000: ffd1 0c3e 0000 0000 9d79 3b3e 5baf 94bd
00000010: aebc 3f3e 0b1a e03d a930 85bd 7c06 ef3c
00000020: 5dbb adbd bef1 aabd 52d4 c93d c651 3e3e
00000030: 1481 983d 05b7 2f3e 0000 0000 38fc 753d
00000040: 149f f7bd 9f42 b1bd 4afc 75bd bc00 76bd
00000050: 6fc7 7bbd 47fc 75bd 21ce 7cbd 0000 0000
00000060: 9f88 403e 8b45 7dbd ed3a 3a3e 0000 0000
00000070: 4a3c 363e adfd 383e 68ca 3b3e cf6a 3b3e

gat2.lin.weight f4 [64, 32]
-0.274788 0.16334769 -0.08119758 0.35899374 0.099076055 -0.44357428 0.24668883 -0.13636872
0.29638815 -0.019616105 -0.0072707576 0.3077984 0.27843857 0.121955 0.10575768 0.22493562
0.0903262 0.2864328 0.030603144 0.2509259 -0.09950945 -0.080915704 0.33756536 0.3421572
-0.32326123 0.1363276 0.2773699 0.14394689 0.16324508 0.2208856 0.028034542 -0.048413426
0.03390128 -0.12025037 -0.3339637 -0.13177364 -0.06169837 -0.24920642 0.13703482 0.0077155996
0.08641738 -0.352789 -0.18929707 -0.04706015 -0.24287751 0.24318874 -0.26938322 -0.19291681
0.08671158 -0.026222331 -0.25985545 -0.4963559 -0.085402146 -0.3021576 -0.36768073 -0.09460616
0.030061562 -0.38002196 -0.2910719 -0.11982302 0.031914286 -0.43010214 0.04026349 -0.013604467
-0.28363967 -0.0397768 -0.010926835 -0.009591177 0.31652138 -0.45752844 0.1868647 0.12274409
0.2002291 0.15838902 0.1564475 -0.06882345 0.29361224 0.08365949 0.15580869 0.19580667
0.26744843 0.2958341 -0.016687853 0.26747853 -0.122747004 -0.021516807 0.19003278 0.35014367
-0.35194248 0.11022915 -0.10632545 -0.1317777 0.065290004 0.3260274 -0.016773416 0.13519506
-0.14993724 -0.120049834 0.06462312 -0.21525808 -0.1335504 0.16319463 -0.10866753 -0.16966882
0.20936309 -0.23947169 -0.26139697 -0.06804338 -0.29912588 -0.23460001 -0.030682746 0.00978477
-0.31670174 -0.004333404 0.14387171 -0.13168989 0.021297183 -0.17447437 -0.16319275 0.12661189
-0.020344172 0.06741262 -0.18796086 -0.2539368 0.10925892 -0.22509626 -0.02882515 -0.2960149
0.009868477 0.12347715 -0.06478293 0.3519723 0.3041139 -0.4757676 0.26820984 -0.16782197
0.09554477 0.2512077 0.19804937 -0.09787049 0.34649527 -0.21046627 0.17372213 0.19801335
0.10746967 0.25651783 0.20333004 0.045288187 -0.036986135 -0.030833466 0.13645132 0.23269977
-0.51837 -0.018439513 0.08899791 -0.07834171 0.23915699 -0.03001986 -0.17838022 0.06148656
0.08642993 -0.13064416 0.29824305 0.26334974 0.24661906 -0.7575418 0.18975157 0.07761389
0.25028244 0.042865533 0.1781259 -0.021478528 0.16154532 -0.051930767 0.061975114 -0.008080095
-0.015821572 0.019641705 0.27480796 -0.00779888 0.109922275 0.117594846 0.21985504 0.22477248
-0.68050915 0.27215448 0.22035089 -0.2953401 -0.119129054 0.055704415 0.03593299 -0.3838742
0.21876676 -0.13823932 0.10705743 -0.3076359 0.15160216 -0.1555778 -0.19735241 0.009564996
-0.041216798 -0.26070273 -0.118103646 -0.2599039 -0.18405837 -0.19110723 -0.16922575 -0.11310892
-0.28520083 -0.08577567 -0.086556256 -0.09639897 0.17830253 0.06349834 -0.2449972 -0.015629377
-0.28013495 -0.11767036 -0.108332366 -0.08829601 0.1146745 0.052097507 0.07366147 -0.14920716
-0.2046191 -0.0053382604 0.1977129 0.2850996 0.064131744 -0.03004321 -0.25524366 0.05488058
-0.14738554 0.10686646 0.09848049 0.25194964 -0.13963546 -0.12378838 0.009145237 0.030843446
0.09590363 -0.19591221 -0.17426822 0.13879845 0.009857808 -0.08821186 -0.05746301 0.2533951
-0.09094307 0.31350145 0.25099084 0.07175617 -0.16376959 0.015251521 0.0814626 0.12640463
00000000: 03b1 8cbe 9e44 273e eb4a a6bd 07ce b73e
00000010: 63e8 ca3d 2b1c e3be ff9b 7c3e 3ea4 0bbe
00000020: 30c0 973e f4b1 a0bc 893f eebb c097 9d3e
00000030: 808f 8e3e 8bc3 f93d 7c97 d83d 8655 663e
00000040: f1fc b83d 52a7 923e 72b3 fa3c 5c79 803e
00000050: 9ccb cbbd 22b7 a5bd 5ed5 ac3e 3b2f af3e
00000060: 7f82 a5be 7699 0b3e 6d03 8e3e d066 133e
00000070: b829 273e d62f 623e b2a8 e53c 284d 46bd
00000080: 12dc 0a3d d345 f6bd 4afd aabe abef 06be
00000090: 6eb7 7cbd f82f 7fbe db52 0c3e 24d3 fc3b
000000a0: 98fb b03d c3a0 b4be 17d7 41be 25c2 40bd
000000b0: e2b4 78be 7806 793e 99ec 89be fc8b 45be
000000c0: d795 b13d 37d0 d6bc c60b 85be 5c22 febe
000000d0: 52e7 aebd 67b4 9abe a640 bcbe e0c0 c1bd
000000e0: aa43 f63c 3d92 c2be 6007 95be c665 f5bd
000000f0: 8eb8 023d 5936 dcbe 54eb 243d 45e5 5ebc
00000100: 3839 91be ffec 22bd 7806 33bc 5024 1dbc
00000110: 170f a23e 2b41 eabe 7659 3f3e 4161 fb3d
00000120: db08 4d3e bb30 223e c633 203e 4ff3 8cbd
00000130: 5854 963e ab55 ab3d 508c 1f3e 8b81 483e
00000140: 00ef 883e 9177 973e f7b4 88bc f2f2 883e
00000150: c862 fbbd 0444 b0bc f497 423e 0846 b33e
00000160: ce31 b4be d2bf e13d 28c1 d9bd bcf0 06be
00000170: c4b6 853d 10ed a63e 6768 89bc 9370 0a3e
00000180: 2689 19be b0dc f5bd 2059 843d 9d6c 5cbe
00000190: 70c1 08be 7e1c 273e 158d debd aabd 2dbe
000001a0: 4763 563e 1138 75be d3d5 85be 545a 8bbd
000001b0: 0727 99be fc3a 70be 625a fbbc 4d50 203c
000001c0: bb26 a2be 3aff 8dbb 1b53 133e b7d9 06be
000001d0: 6e77 ae3c 69a9 32be 001c 27be 8ca6 013e
000001e0: d2a8 a6bc a10f 8a3d d078 40be 0104 82be
000001f0: 24c3 df3d a27f 66be b922 ecbc 448f 97be
00000200: 64af 213c 97e1 fc3d eaac 84bd b735 b43e
00000210: d1b4 9b3e d097 f3be cd52 893e 86d9 2bbe
00000220: faac c33d 4c9e 803e 74cd 4a3e 5370 c8bd
00000230: d467 b13e 7884 57be 37e4 313e 03c4 4a3e
00000240: 0f19 dc3d 4e56 833e c035 503e 1b80 393d
00000250: c67e 17bd 7796 fcbc e5b9 0b3e d948 6e3e
00000260: e5b3 04bf 760e 97bc 8944 b63d 9e71 a0bd
00000270: 92e5 743e 36ec f5bc 4ea9 36be 55d9 7b3d
00000280: 2d02 b13d 95c7 05be 50b3 983e c7d5 863e
00000290: b589 7c3e 42ee 41bf 3c4e 423e 08f4 9e3d
000002a0: 0525 803e c593 2f3d a366 363e bdf3 afbc
000002b0: 236c 253e 5bb5 54bd 9ed9 7d3d 6062 04bc
000002c0: 3e9c 81bc a4e7 a03c a1b3 8c3e bf8d ffbb
000002d0: ee1e e13d 91d5 f03d ae21 613e c22a 663e
000002e0: d935 2ebf d557 8b3e aaa3 613e d136 97be
000002f0: eff9 f3bd 502a 643d 792e 133d 298b c4be
00000300: 6504 603e 9c8e 0dbe ed40 db3d 7482 9dbe
00000310: 993d 1b3e c94f 1fbe c016 4abe 80b6 1c3c
00000320: f2d2 28bd d47a 85be 53e0 f1bd 2012 85be
00000330: cc79 3cbe 9db1 43be 8449 2dbe a6a5 e7bd
00000340: d805 92be 28ab afbd 6844 b1bd d36c c5bd
00000350: f094 363e 6b0b 823d 8ce0 7abe 2e09 80bc
00000360: d96d 8fbe 28fd f0bd 5cdd ddbd 8ad4 b4bd
00000370: 77da ea3d 3264 553d d3db 963d c3c9 18be
00000380: ab87 51be 93ec aebb 4075 4a3e 93f8 913e
00000390: 8157 833d 2e1d f6bc 4caf 82be 76ca 603d
000003a0: 3cec 16be cddc da3d 24b0 c93d 8bff 803e
000003b0: 99fc 0ebe c384 fdbd e7d5 153c 65ab fc3c
000003c0: 1f69 c43d 369d 48be 5e73 32be 2e21 0e3e
000003d0: a582 213c 6ba8 b4bd 555e 6bbd 01bd 813e
000003e0: 5c40 babd 4383 a03e df81 803e e6f4 923d
000003f0: 37b3 27be 84e1 793c ddd5 a63d 3770 013e

gat2.lin_edge.weight f4 [64, 1]
0.25346592 0.01807353 0.17896277 -0.14837195 0.30435854 0.19582762 0.14660746 0.3102624
0.1613575 0.009989651 -0.10680427 -0.3189332 -0.055005882 0.13782023 -0.08825359 -0.036712732
-0.098615065 0.18137476 0.1896903 -0.08861534 0.06367285 0.11269724 0.017291265 -0.19865288
0.0010180075 0.23590851 0.40006724 0.37540558 -0.1828367 0.07369117 -0.088999 -0.28549632
-0.07446858 -0.11162051 0.36059818 -0.2918732 -0.014959297 -0.22866507 -0.11707428 0.10266772
-0.36759916 0.08545061 0.025027266 -0.036569417 0.027612068 -0.28849187 0.097293146 0.17097655
0.045950945 0.2424353 -0.03480138 -0.36847985 -0.043489162 0.18576628 -0.0400512 0.08075514
-0.06604857 0.3428179 -0.16819048 0.073947996 -0.32850227 0.201126 0.16158356 0.064384565
00000000: 49c6 813e f10e 943c 0442 373e d1ee 17be
00000010: e2d4 9b3e 0987 483e 4420 163e b7da 9e3e
00000020: e73a 253e a2ab 233c 32bc dabd 364b a3be
00000030: d94d 61bd bf20 0d3e 4cbe b4bd 1760 16bd
00000040: b2f6 c9bd 4eba 393e 2d3e 423e f67b b5bd
00000050: e966 823d d0cd e63d 69a6 8d3c a96b 4bbe
00000060: aa6e 853a 0092 713e 9dd5 cc3e 2935 c03e
00000070: 8b39 3bbe 65eb 963d 1c45 b6bd 932c 92be
00000080: fc82 98bd 4b99 e4bd 53a0 b83e 6770 95be
00000090: d717 75bc 2d27 6abe a4c4 efbd 7443 d23d
000000a0: f535 bcbe bb00 af3d fb05 cd3c d0c9 15bd
000000b0: b432 e23c 35b5 93be a141 c73d 7a14 2f3e
000000c0: 0f37 3c3d f640 783e e48b 0ebd 64a9 bcbe
000000d0: b121 32bd 8439 3e3e ba0c 24bd f362 a53d
000000e0: 7944 87bd d485 af3e 203a 2cbe 0c72 973d
000000f0: 7331 a8be f9f3 4d3e 2976 253e 0edc 833d

lin.weight f4 [1, 32]
0.1287728 0.06599155 0.21649866 -0.081251025 0.2741559 0.111780345 -0.111753836 0.0145513015
-0.07307484 -0.055369347 0.035747856 0.25383526 0.09258517 0.1639231 0.12859233 0.197484
0.09975897 -0.0015731633 -0.07835057 -0.03645898 0.06412803 -0.11016101 -0.075052164 0.039539054
0.29314926 0.006929696 0.26127186 0.06806184 0.18256423 0.19696842 0.21821219 0.21756358
00000000: 04dd 033e 9426 873d d3b1 5d3e f066 a6bd
00000010: 2a5e 8c3e 18ed e43d 32df e4bd 9568 6e3c
00000020: 43a8 95bd f8ca 62bd 586c 123d b2f6 813e
00000030: 4b9d bd3d 75db 273e b5ad 033e 3f39 4a3e
00000040: 6e4e cc3d 9a32 ceba 4376 a0bd 0356 15bd
00000050: 8e55 833d 189c e1bd f3b4 99bd b4f3 213d
00000060: a917 963e 8112 e33b 6dc5 853e 0264 8b3d
00000070: 1ef2 3a3e 17b2 493e 0473 5f3e fdc8 5e3e
