jalur-obat/backend/model/route_gnn_improved.pth (torch, 178765 bytes, 26 tensors)

emb_prev.weight f4 [21, 32]
1.8533298 1.3888866 0.9273545 -2.004325 0.63684213 -1.2472931 -0.07547118 -1.619523
-0.7298772 1.6203467 -0.394743 -1.3866442 -0.77952164 -0.5510144 -0.7943084 0.75293434
1.5474768 -0.18665443 -0.49877495 0.36929584 -0.69160837 1.0569227 0.79714704 1.5970664
1.2238567 1.2295506 0.5347393 1.351888 -0.23492338 0.048151232 -0.21854123 0.83262736
-1.3187492 -0.84078145 -0.20572136 1.7331468 0.28986457 -0.40621427 0.26049232 -0.73662794
-1.4582691 0.9713876 -0.9364699 -0.591791 -1.2990793 2.0534902 -1.2500775 -0.43713614
-0.968247 -0.66762906 0.03294298 0.4740081 -0.4648795 1.1079105 -0.8457457 -0.61830515
-1.3480762 0.012696798 -0.0844913 0.73562443 -0.076520525 1.861245 -1.0413946 1.3820648
1.3750236 0.86144674 2.185724 0.42285383 0.3126562 -0.22080308 -1.0284032 1.2705646
-0.2350631 0.50549257 -0.003278862 0.47938937 0.59099513 -0.63343287 -2.1709821 -0.75933015
0.05607154 -0.32193473 -1.3512613 -0.5695299 0.5309018 0.5711743 1.0964313 0.06091627
0.7385397 -0.48772746 -1.0576167 0.6382391 -1.6425896 -0.8095345 1.3306419 0.47585103
-2.4438212 0.45906663 0.7623359 0.043379605 0.57367134 0.5249348 1.0185959 -0.39447993
-0.1776775 0.7599411 0.3886487 0.22238469 0.26003587 1.2644283 -0.012940689 -0.24723922
-1.3984717 -0.10380858 -0.59243375 0.44316468 0.7399509 0.034154013 -0.40475053 0.5302578
0.024005318 0.18370463 0.07834926 0.7555601 1.0244195 0.3905789 0.72400725 0.36208516
1.8499312 0.98500896 -1.3903803 -1.0607871 -0.15420139 1.5224829 0.5835689 0.6101486
1.09808 0.053623725 -1.8238997 0.8728063 -0.4015815 0.9828175 -0.6758091 0.6190017
-0.918977 0.93996495 1.5599186 1.4140415 0.27767766 -0.21948543 -0.67876965 0.17037188
0.36678144 0.945149 -0.4295913 1.6026124 -2.4238517 -0.41464916 -1.1303992 0.79942644
-1.8360851 0.23749118 0.044965208 -0.36233562 0.29066366 -0.7500908 0.18063834 -1.0296788
-1.6053171 1.2983671 1.2167463 0.013464282 -1.4935206 0.72568524 0.6953511 1.9569128
-0.0010456269 0.059122395 -0.73857707 -0.23307468 -0.93083423 -1.5646287 -1.1423951 -0.47630396
-0.4948302 -1.4793135 -1.9215143 0.11551757 1.0300651 -0.50361925 0.732588 0.67237127
1.6588205 -0.87113374 0.9379201 -0.32683638 -1.1862925 0.32267213 0.44785798 1.3400172
0.5362538 2.087846 -0.52945006 -0.8713947 0.15012819 1.0271059 1.2345675 0.43644553
-0.79178053 -0.9392135 -0.49397916 -0.61644405 0.13589473 0.42506152 -0.20261168 -2.2193792
-0.38628483 1.037273 -1.7305739 1.5042524 0.31714877 -0.4747744 1.0879878 1.622779
-0.049477886 1.6593397 0.1511214 -0.999662 -0.6214945 0.120687164 0.3525487 1.9396868
-0.03723047 -0.8925421 -2.0165257 -1.0123671 -0.09076382 0.047685646 0.17591134 0.4130128
-0.9533793 0.25606018 -0.49069023 0.42830744 -0.8501257 -0.008186956 -0.36274624 1.520524
1.1814295 -0.74225426 0.84814435 0.54258484 0.5336287 0.60488605 0.50873774 0.23680276
00000000: e939 ed3f 09c7 b13f 1b67 6d3f dc46 00c0
00000010: 1608 233f 4da7 9fbf a290 9abd 884c cfbf
00000020: 3bd9 3abf 8567 cf3f c11b cabe 8f7d b1bf
00000030: bb8e 47bf 480f 0dbf cc57 4bbf 4ec0 403f
00000040: b813 c63f 5722 3fbe 6e5f ffbe 5814 bd3e
00000050: 3f0d 31bf 3e49 873f d411 4c3f ac6c cc3f
00000060: 56a7 9c3f ea61 9d3f ade4 083f aa0a ad3f
00000070: c18f 70be 3a3a 453d 46c9 5fbe 1127 553f
00000080: c6cc a8bf 743d 57bf 9fa8 52be c1d7 dd3f
00000090: 2169 943e 51fb cfbe 405f 853e a693 3cbf
000000a0: 90a8 babf dcac 783f 7ebc 6fbf 9d7f 17bf
000000b0: 3b48 a6bf 626c 0340 8a02 a0bf 4fd0 dfbe
000000c0: 09df 77bf bde9 2abf 38ef 063d 31b1 f23e
000000d0: b004 eebe 03d0 8d3f ca82 58bf 3f49 1ebf
000000e0: c38d acbf 3b06 503c c609 adbd e251 3c3f
000000f0: cbb6 9cbd 473d ee3f 6b4c 85bf 80e7 b03f
00000100: c600 b03f c687 5c3f e7e2 0b40 4c80 d83e
00000110: 7914 a03e 341a 62be b7a2 83bf dca1 a23f
00000120: 62b4 70be f667 013f 2de2 56bb 8672 f53e
00000130: 754b 173f a828 22bf 5ff1 0ac0 7663 42bf
00000140: 45ab 653d a1d4 a4be 21f6 acbf b6cc 11bf
00000150: 2ee9 073f 7b38 123f dc57 8c3f 5783 793d
00000160: f010 3d3f 6ab7 f9be fc5f 87bf a363 233f
00000170: 6040 d2bf a73d 4fbf 7952 aa3f bfa2 f33e
00000180: 9167 1cc0 c80a eb3e 7228 433f d0ae 313d
00000190: 20dc 123f 2162 063f 5a61 823f 46f9 c9be
000001a0: 17f1 35be 808b 423f f6fc c63e d0b8 633e
000001b0: 6c23 853e c9d8 a13f 2f05 54bc 472c 7dbe
000001c0: 1f01 b3bf 9899 d4bd bda9 17bf 7be6 e23e
000001d0: 6c6d 3d3f 14e5 0b3d 763b cfbe fabe 073f
000001e0: cda6 c43c 111d 3c3e 9475 a03d 636c 413f
000001f0: 2e20 833f f5f9 c73e 8a58 393f 3a63 b93e
00000200: 8cca ec3f 8c29 7c3f fbf7 b1bf dfc7 87bf
00000210: f8e6 1dbe b8e0 c23f c564 153f b332 1c3f
00000220: e38d 8c3f 8da4 5b3d 8c75 e9bf 3c70 5f3f
00000230: 179c cdbe ed99 7b3f d301 2dbf e576 1e3f
00000240: 1442 6bbf 8ba1 703f 6aab c73f 50ff b43f
00000250: c42b 8e3e cac0 60be d9c3 2dbf f775 2e3e
00000260: c7ca bb3e 49f5 713f 64f3 dbbe 6722 cd3f
00000270: 6320 1bc0 e54c d4be ecb0 90bf 36a7 4c3f
00000280: d604 ebbf e330 733e 702d 383d 0e84 b9be
00000290: ded1 943e f305 40bf 42f9 383e 84cc 83bf
000002a0: 087b cdbf e530 a63f 58be 9b3f 4b99 5c3c
000002b0: af2b bfbf 82c6 393f 8802 323f 1e7c fa3f
000002c0: 6b0d 89ba 532a 723d 6313 3dbf 21ab 6ebe
000002d0: 274b 6ebf c145 c8bf 013a 92bf 1dde f3be
000002e0: 625a fdbe 255a bdbf 2ef4 f5bf 7a94 ec3d
000002f0: 2cd9 833f 31ed 00bf e38a 3b3f 8620 2c3f
00000300: 3b54 d43f 9f02 5fbf 881b 703f 1957 a7be
00000310: 6fd8 97bf 4835 a53e a44d e53e af85 ab3f
00000320: ee47 093f 459f 0540 0a8a 07bf b913 5fbf
00000330: 34bb 193e 3578 833f 4f06 9e3f ca75 df3e
00000340: 21b2 4abf 4c70 70bf d6ea fcbe 47cf 1dbf
00000350: fd27 0b3e aaa1 d93e 7079 4fbe 4f0a 0ec0
00000360: 20c7 c5be 5dc5 843f 7283 ddbf 588b c03f
00000370: 5361 a23e a115 f3be 2f43 8b3f 39b7 cf3f
00000380: 53a9 4abd 3e65 d43f 91bf 1a3e d9e9 7fbf
00000390: 431a 1fbf d52a f73d 4381 b43e a847 f83f
000003a0: fa7e 18bd a47d 64bf c20e 01c0 3f95 81bf
000003b0: 62e2 b9bd 0652 433d 1a22 343e 6a76 d33e
000003c0: aa10 74bf 521a 833e c03b fbbe 1d4b db3e
000003d0: d6a1 59bf 9522 06bc e0b9 b9be 88a0 c23f
000003e0: 1539 973f 6004 3ebf fd1f 593f d7e6 0a3f
000003f0: e49b 083f d0d9 1a3f a33c 023f 6c7c 723e

emb_pos.weight f4 [21, 32]
2.080827 -1.521948 0.038361073 -1.0961587 -0.6308843 0.99459654 0.27350545 -0.64340276
-2.8062928 -0.6455564 0.4786256 -1.5769917 0.7563234 -0.38531467 0.09538074 0.8941992
0.1629079 0.7630156 0.30606148 2.6663094 0.4984123 -0.27658385 -0.09257737 1.4509339
-0.17120747 -0.36741167 1.2883745 -0.6103076 -1.3020061 2.909036 1.2789785 0.8115763
0.34167126 0.41472614 1.5566207 1.2043909 -0.1027561 1.3871679 -0.48273784 -1.0228155
-1.2581692 -0.027801203 -0.28961328 -0.771388 -0.28474006 0.45428666 0.9648294 1.1532176
0.7995698 0.07495606 0.77581054 2.047924 0.6887746 0.19968869 0.17430733 0.31734252
0.07672921 1.6674256 -1.2376459 0.3527963 0.30580053 -1.3919802 -1.4249691 -0.24967495
0.18430069 -0.10176083 0.9944979 1.2266022 0.27756295 0.84253865 -0.7082374 -1.388987
0.43495065 0.49696466 -1.3786591 1.9183776 1.6870333 -0.9705918 -1.2251064 -2.1748378
0.010856852 -0.8152444 -1.6290705 0.3287174 1.1323711 0.30632553 -0.36896548 2.7959042
0.8107917 0.74656296 1.8259556 0.5868218 0.08961321 -1.5261533 -0.40834862 0.45123807
0.30932885 -2.9869475 -1.381767 -1.381975 -0.54905164 -0.23726484 -0.70503014 -0.40686795
0.47716424 -0.84434193 -0.4181684 0.570668 -0.25318667 0.79012656 -0.7044383 -0.9116212
0.077797905 0.10045659 0.67748946 1.2853988 0.11143437 -2.4348917 0.4363693 1.8365157
-0.671108 0.017414726 -1.495057 0.34554785 0.7506388 1.3512219 0.66779584 -0.12712896
0.9149487 0.49574944 0.0035994384 -1.4861863 -0.4682506 -0.09894457 0.0724209 -1.2175777
-0.36230752 1.4143889 0.3244575 -1.0225673 -0.7161829 -0.4402186 -1.2359821 1.019845
-1.0218638 -1.9645791 0.25234523 0.43036157 -0.0023466495 -1.0490516 0.22582209 -0.718422
1.3573673 -0.32095277 -0.84119093 1.8828346 -1.6105251 2.0720558 -0.60497135 0.12289453
-0.20285754 0.7492409 0.36603403 1.537998 -0.37760335 -0.43867445 -1.1402262 -0.57545954
-0.2789186 -0.051452823 0.43620488 0.3593665 0.50763196 0.9995856 -0.65518826 0.3990418
0.75254804 -0.90591055 1.5158889 0.7743741 -0.25590488 0.96138334 0.7230499 -0.14666305
-1.321967 -2.2711086 -0.2896054 -0.18339533 -0.14457808 1.1265668 -0.2479007 1.6042687
-0.5701462 -2.071588 -1.5945792 -0.64009315 0.33289245 -0.33226046 0.49697217 -2.2998056
-0.57317185 -0.57876915 1.2024015 1.2499624 -1.1451555 -0.14472751 -0.95506746 1.4857931
1.4123117 -1.2975419 -1.2450061 -1.204605 -1.491559 -2.4442732 1.3724332 -0.4934409
0.70458513 -0.7814849 0.038088005 1.3266093 0.88997126 -0.39865538 -1.4456626 -0.767933
-0.6828315 -0.35964018 0.9452833 -0.82969576 -2.2312763 0.34973794 1.8085618 1.0339965
-0.49287355 -0.6906745 0.18558337 -0.25015944 0.49648976 1.5923885 1.5348269 -0.3887541
1.7810417 -1.0074872 0.85331243 -0.7878441 0.9507827 -0.8712361 -0.5329107 0.30161768
1.1185852 -1.2020555 2.5260706 -0.06482973 -0.040046014 1.2276628 0.84432054 -1.0048617
00000000: 452c 0540 31cf c2bf 8020 1d3d ee4e 8cbf
00000010: a281 21bf e19d 7e3f e808 8c3e 0bb6 24bf
00000020: 4d9a 33c0 2f43 25bf 6a0e f53e ddda c9bf
00000030: 699e 413f f747 c5be fa56 c33d 3dea 643f
00000040: 54d1 263e fe54 433f 17b4 9c3e d0a4 2a40
00000050: e62f ff3e 669c 8dbe 3499 bdbd 34b8 b93f
00000060: 0351 2fbe 621d bcbe 75e9 a43f 1e3d 1cbf
00000070: 23a8 a6bf a52d 3a40 91b5 a33f 77c3 4f3f
00000080: 89ef ae3e fc56 d43e 593f c73f 7b29 9a3f
00000090: ca71 d2bd b88e b13f 6a29 f7be 9eeb 82bf
000000a0: b00b a1bf 59bf e3bc 3148 94be af79 45bf
000000b0: 73c9 91be 4398 e83e 0fff 763f a29c 933f
000000c0: 9bb0 4c3f 9082 993d 859b 463f 3011 0340
000000d0: 8853 303f 317b 4c3e 9f7d 323e b87a a23e
000000e0: 3424 9d3d 346e d53f 2e6b 9ebf b7a1 b43e
000000f0: e391 9c3e 682c b2bf 6365 b6bf caaa 7fbe
00000100: 52b9 3c3e fb67 d0bd 6a97 7e3f 4d01 9d3f
00000110: bb1c 8e3e 9db0 573f 0c4f 35bf 53ca b1bf
00000120: dab1 de3e 2772 fe3e e777 b0bf 668d f53f
00000130: b5f0 d73f b478 78bf 49d0 9cbf 8b30 0bc0
00000140: f0e0 313c dbb3 50bf 6285 d0bf a64d a83e
00000150: 89f1 903f b3d6 9c3e 0be9 bcbe 18f0 3240
00000160: 0b90 4f3f c01e 3f3f eab8 e93f f439 163f
00000170: 2187 b73d fe58 c3bf 1213 d1be ad08 e73e
00000180: 5a60 9e3e 262a 3fc0 bedd b0bf 8fe4 b0bf
00000190: a68e 0cbf 8ef5 72be db7c 34bf ff50 d0be
000001a0: df4e f43e cb26 58bf 2b1a d6be 4c17 123f
000001b0: afa1 81be bc45 4a3f 1256 34bf 0260 69bf
000001c0: 8254 9f3d 2fbc cd3d f36f 2d3f f387 a43f
000001d0: b437 e43d 44d5 1bc0 cc6b df3e f212 eb3f
000001e0: bccd 2bbf 54a9 8e3c 075e bfbf a6eb b03e
000001f0: dd29 403f d7f4 ac3f abf4 2a3f 182e 02be
00000200: 143a 6a3f dfd2 fd3e 8ee4 6b3b 5a3b bebf
00000210: 8bbe efbe 73a3 cabd 6951 943d 96d9 9bbf
00000220: 5f80 b9be b20a b53f 4b1f a63e 7ce3 82bf
00000230: c357 37bf 5564 e1be a934 9ebf 488a 823f
00000240: 6fcc 82bf 5477 fbbf 6533 813e 5a58 dc3e
00000250: 3fca 19bb 5347 86bf e83d 673e 81ea 37bf
00000260: 36be ad3f ec53 a4be 4a58 57bf b900 f13f
00000270: b025 cebf 909c 0440 67df 1abf 21b0 fb3d
00000280: e3b9 4fbe 40ce 3f3f d068 bb3e 1edd c43f
00000290: 3a55 c1be f099 e0be eff2 91bf 5151 13bf
000002a0: 6bce 8ebe 32c0 52bd 3f56 df3e e3fe b73e
000002b0: 2bf4 013f d8e4 7f3f 6bba 27bf 354f cc3e
000002c0: fda6 403f c1e9 67bf a608 c23f 623d 463f
000002d0: f705 83be 381d 763f cc19 393f d72e 16be
000002e0: 3736 a9bf d859 11c0 2947 94be fccb 3bbe
000002f0: 470c 14be 5733 903f aed9 7dbe ad58 cd3f
00000300: 1af5 11bf e694 04c0 2c1b ccbf 25dd 23bf
00000310: e170 aa3e 0b1e aabe 2373 fe3e 0430 13c0
00000320: 64bb 12bf 372a 14bf 4be8 993f c5fe 9f3f
00000330: 7594 92bf 7333 14be 4d7f 74bf 782e be3f
00000340: a1c6 b43f da15 a6bf 5c5c 9fbf 7f30 9abf
00000350: 68eb bebf f96e 1cc0 e4ab af3f 49a4 fcbe
00000360: b15f 343f 650f 48bf 2b02 1c3d 55ce a93f
00000370: 28d5 633f 8f1c ccbe 790b b9bf 4297 44bf
00000380: 0cce 2ebf c222 b8be 16fe 713f f166 54bf
00000390: 3bcd 0ec0 da10 b33e f47e e73f ff59 843f
000003a0: ec59 fcbe 0bd0 30bf 9109 3e3e e614 80be
000003b0: e833 fe3e 63d3 cb3f 3575 c43f c70a c7be
000003c0: 2df9 e33f 57f5 80bf af72 5a3f 27b0 49bf
000003d0: 7f66 733f 5409 5fbf d66c 08bf a26d 9a3e
000003e0: cd2d 8f3f f4dc 99bf 24ab 2140 73c5 84bd
000003f0: 4a07 24bd 0e24 9d3f 6425 583f 4f9f 80bf

emb_cond.weight f4 [3, 16]
-0.7814586 -0.64580446 0.2989363 -1.6287105 0.40188566 0.9729963 -1.3499566 -0.83471715
-1.4244779 -0.27394983 -0.9477465 0.6612976 0.36705095 -1.1324549 -0.7489271 0.9243969
0.4618367 1.4466354 -0.29900354 1.589948 -0.82007134 0.41305837 -0.27338862 -0.22025527
-0.2885718 -0.7938652 -0.0737827 -0.2534895 1.4238842 0.0048358217 -0.58299094 -0.49336877
3.1283495 -1.2450547 2.1035647 -1.2345113 -1.7897856 -0.10028691 -0.8904665 -0.24319832
-0.8976913 0.35043305 0.95691186 -1.58006 1.2937077 0.17686836 2.1971388 -0.2372567
00000000: ac0d 48bf 7153 25bf 2e0e 993e 9679 d0bf
00000010: f5c3 cd3e 4916 793f 61cb acbf 06b0 55bf
00000020: 4b55 b6bf 2743 8cbe 849f 72bf cd4a 293f
00000030: 1aee bb3e 48f4 90bf b0b9 3fbf 46a5 6c3f
00000040: dc75 ec3e 592b b93f fe16 99be 6b83 cb3f
00000050: 32f0 51bf 637c d33e 98f9 8bbe 998a 61be
00000060: afbf 93be c03a 4bbf 621b 97bd 60c9 81be
00000070: d641 b63f d075 9e3b e53e 15bf d59a fcbe
00000080: e136 4840 f45d 9fbf cea0 0640 7704 9ebf
00000090: b217 e5bf 3963 cdbd 9df5 63bf fb08 79be
000000a0: 19cf 65bf f66b b33e 2df8 743f 683f cabf
000000b0: 3798 a53f fb1c 353e ec9d 0c40 6cf3 72be

lin_in.weight f4 [64, 82]
0.059764482 -0.055516288 0.076882176 0.012404295 0.0121387 0.0024873782 -0.014991169 -0.075558305
0.0016605764 -0.05998594 -0.024045367 -0.025153022 -0.12527494 -0.047148034 0.012722506 -0.011621924
-0.03793989 0.0090259975 0.044474956 0.05611338 0.008050157 -0.04350756 -0.037263047 -0.031651895
-0.055359907 0.023476917 0.00067399675 0.03152614 0.023387158 0.07676449 -0.0001074286 -0.08023747
0.040309455 -0.011359503 0.0023626918 -0.013225684 -0.049745962 -0.0154038295 0.08100049 0.08882144
0.0553423 0.12695779 -0.054900013 0.021017399 0.081013106 0.038087957 -0.09884724 0.013483029
-0.079595424 -0.018424384 -0.009185077 -0.08249999 -0.09469769 -0.014936574 0.085238956 0.019824088
-0.095666185 -0.020116394 -0.010248988 -0.08402842 0.055264276 0.0968306 0.014817811 -0.032840367
0.1377295 -0.08175943 0.20303537 -0.1534492 -0.17286356 -0.09400453 -0.0040159267 0.010207029
-0.05547309 0.087611474 0.2366039 -0.13619731 0.065298766 0.19668438 0.15571468 0.0121532045
-0.021322705 0.060307402 -0.088685006 -0.0050324625 0.019435242 0.042140264 -0.0008771542 -0.008234115
-0.009913338 0.05117235 -0.09202563 -0.066949815 -0.062574655 -0.03827763 0.033584986 0.09800966
-0.003277185 0.104792215 -0.07187482 -0.05540296 -0.05772511 -0.07599334 -0.10365008 -0.0760388
-0.10401721 0.04422426 0.07662405 0.11086281 0.0411645 -0.03111875 0.011596522 -0.08301021
0.02330218 -0.10332161 0.0625848 0.0021795533 0.02085282 0.05460554 -0.04895766 0.06553409
0.015557232 0.008258938 0.051489335 0.08501901 0.08420106 0.13263783 0.12835106 -0.023283964
0.057812892 0.033642232 0.08426488 0.10114434 0.024789963 -0.02564399 -0.001966492 0.038641866
0.022313623 0.014812035 0.025883986 0.09836103 -0.044939138 0.04532866 -0.011718542 -0.084393315
0.029429832 -0.040633168 -0.07993332 0.0078815175 -0.07538981 0.14573543 0.051158465 0.10660601
0.055319928 0.042500533 0.07040322 -0.013734052 -0.106547736 -0.04434984 -0.024009502 0.016448189
0.0030651472 0.020704428 0.10821625 0.013867818 -0.035841476 -0.09572245 -0.06384478 -0.07110761
0.03554932 0.07258623 0.10380705 -0.027583947 0.0010477048 -0.061548814 0.033927582 0.034918517
0.0336805 -0.0391636 0.045969233 0.020694746 -0.008937265 -0.048119664 0.018432071 -0.018552063
-0.029386986 0.03620362 0.051031355 -0.010842591 -0.025098154 -0.008638074 -0.08619744 -0.025113609
0.014322886 0.031120613 0.03402574 -0.010914902 0.044788856 0.1068562 -0.058604732 0.04566588
0.0336454 -0.09358881 0.03553878 -0.03918574 -0.021406308 -0.03932392 -0.048886783 0.08628086
-0.11790849 0.050490763 -0.065449096 -0.008901746 -0.0029926738 0.123503536 -0.04197111 0.035511136
0.0055879876 0.083130665 0.0010071811 0.022548908 -0.082046576 -0.066996634 0.067553855 -0.057037883
0.0020527816 -0.03569657 0.13039477 -0.03506013 -0.06352037 -0.0322036 0.06774678 0.06123686
0.093024075 -0.11524365 0.11329135 -0.022322603 0.10458056 0.08364296 0.12043995 -0.08778239
-0.0644043 0.11574723 -0.04150873 -0.12364992 -0.17694363 -0.045062907 0.017348662 0.048876725
0.007902928 0.05539437 -0.080107085 0.005660703 0.012375865 -0.040211942 0.05552084 -0.06106237
00000000: 9acb 743d 0c65 63bd 6774 9d3d 623b 4b3c
00000010: 66e1 463c 4803 233b 859d 75bc 50be 9abd
00000020: b3a7 d93a d1b3 75bd cafa c4bc b60d cebc
00000030: 1348 00be 4c1e 41bd 0f72 503c e269 3ebc
00000040: dc66 1bbd c7e1 133c 5f2b 363d 25d7 653d
00000050: cee4 033c fc34 32bd 23a1 18bd 6ba5 01bd
00000060: 12c1 62bd aa52 c03c 28af 303a 8e21 013d
00000070: 6d96 bf3c b336 9d3d 4a4b e1b8 8b53 a4bd
00000080: 871b 253d 351d 3abc 64d7 1a3b 8ab0 58bc
00000090: 6cc2 4bbd 5860 7cbc 96e3 a53d 04e8 b53d
000000a0: 9cae 623d 3901 023e d6de 60bd ae2c ac3c
000000b0: 33ea a53d 1e02 1c3d 6c70 cabd ece7 5c3c
000000c0: ed02 a3bd bcee 96bc 017d 16bc c1f5 a8bd
000000d0: ddf0 c1bd 88b8 74bc c391 ae3d 2066 a23c
000000e0: a2ec c3bd 23cb a4bc 5feb 27bc 1817 acbd
000000f0: cb5c 623d 1f4f c63d 67c6 723c 9f83 06bd
00000100: f608 0d3e 7d71 a7bd 81e8 4f3e c921 1dbe
00000110: 2503 31be 7285 c0bd 0998 83bb 623b 273c
00000120: c037 63bd a56d b33d 4b48 723e 4f77 0bbe
00000130: 5cbb 853d a167 493e ab73 1f3e 3c1e 473c
00000140: f4ac aebc e504 773d 7ca0 b5bd 5be7 a4bb
00000150: a836 9f3c 459b 2c3d d2f0 65ba 62e8 06bc
00000160: 8e6b 22bc 199a 513d ef77 bcbd fc1c 89bd
00000170: 2427 80bd 01c9 1cbd 6990 093d 4ab9 c83d
00000180: 0ac6 56bb 4d9d d63d 1b33 93bd 37ee 62bd
00000190: 2a71 6cbd 65a2 9bbd 7e46 d4bd 3bba 9bbd
000001a0: fa06 d5bd 7f24 353d 12ed 9c3d 0a0c e33d
000001b0: 1b9c 283d c0ec febc 57ff 3d3c 4201 aabd
000001c0: 37e4 be3c 489a d3bd 762c 803d d6d6 0e3b
000001d0: 88d3 aa3c 0faa 5f3d d487 48bd bd36 863d
000001e0: c3e3 7e3c 7f50 073c 7be6 523d 721e ae3d
000001f0: 9b71 ac3d 36d2 073e 766e 033e 03be bebc
00000200: 36cd 6c3d 70cc 093d 1193 ac3d c424 cf3d
00000210: 5214 cb3c 5813 d2bc 43e0 00bb ef46 1e3d
00000220: 0fcb b63c 2dae 723c a70a d43c 8271 c93d
00000230: 1a12 38bd 8caa 393d 21ff 3fbc 67d6 acbd
00000240: d516 f13c f76e 26bd 15b4 a3bd 7b21 013c
00000250: f965 9abd ab3b 153e 8a8b 513d 4054 da3d
00000260: 2697 623d 0a15 2e3d 902f 903d ca04 61bc
00000270: b335 dabd 2ea8 35bd 93af c4bc 5abe 863c
00000280: a3e0 483b 559c a93c 7ba0 dd3d d835 633c
00000290: 83ce 12bd 220a c4bd 0dc1 82bd dea0 91bd
000002a0: 2a9c 113d 17a8 943d ca98 d43d bbf7 e1bc
000002b0: 2453 893a 9c1a 7cbd a6f7 0a3d b806 0f3d
000002c0: 90f4 093d 036a 20bd 3c4a 3c3d 0788 a93c
000002d0: 9b6d 12bc 2019 45bd dbfe 963c 7ffa 97bc
000002e0: fabc f0bc 3f4a 143d 4106 513d 1fa5 31bc
000002f0: a59a cdbc b586 0dbc 4988 b0bd 0ebb cdbc
00000300: 8aaa 6a3c a8f0 fe3c 935e 0b3d 6bd4 32bc
00000310: 8574 373d 6cd7 da3d 840b 70bd 250c 3b3d
00000320: c2cf 093d 7dab bfbd 1d91 113d 3a81 20bd
00000330: 485c afbc 1e12 21bd 823d 48bd 05b4 b03d
00000340: 027a f1bd 67cf 4e3d 2d0a 86bd a1d8 11bc
00000350: bc20 44bb 6cef fc3d e6e9 2bbd 2074 113d
00000360: 701b b73b 6940 aa3d 6403 843a 7db8 b83c
00000370: 0908 a8bd 8835 89bd ad59 8a3d 8ea0 69bd
00000380: f687 063b 9136 12bd 3586 053e 369b 0fbd
00000390: f816 82bd ece7 03bd d3be 8a3d 80d3 7a3d
000003a0: 6883 be3d dd04 ecbd 4c05 e83d e4dd b6bc
000003b0: 552e d63d 004d ab3d 38a9 f63d 41c7 b3bd
000003c0: 67e6 83bd e20c ed3d 0f05 2abd 2b3c fdbd
000003d0: b630 35be e293 38bd c81e 8e3c f632 483d
000003e0: 487b 013c 35e5 623d 2f0f a4bd 6b7d b93b
000003f0: 24c4 4a3c 47b5 24bd d269 633d 891c 7abd

lin_in.bias f4 [64]
-0.057942875 -0.014118326 -0.16620639 -0.011344013 -0.04870516 -0.09985392 -0.006400197 -0.029170452
-0.12627675 -0.097834244 -0.07261101 -0.046447296 0.038920823 0.078825794 -0.033395477 -0.056242954
0.02125277 0.19120447 0.17463988 -0.14294064 0.25769156 -0.049817137 -0.16726902 0.02555767
0.05116007 0.045981977 -0.005808261 0.12060084 0.10062519 -0.09554139 0.043025006 -0.05877765
0.04042523 -0.10883521 -0.13108031 0.07971694 0.09324388 0.15346992 -0.028179 -0.08686594
0.06292664 0.117599525 -0.12534447 0.022114964 -0.0045724465 -0.14953057 -0.115986355 -0.031252783
-0.09862569 -0.07507206 -0.102244556 -0.00984427 -0.06796219 -0.0048548374 0.09838452 -0.048789162
-0.090637594 -0.086315505 0.1224693 -0.026260257 -0.16081499 -0.020574015 0.0068330034 -0.1043109
00000000: 8255 6dbd 8d50 67bc 0232 2abe 3ddc 39bc
00000010: 107f 47bd 3680 ccbd beb8 d1bb dff6 eebc
00000020: b14e 01be 525d c8bd 15b5 94bd 853f 3ebd
00000030: 716b 1f3d 6b6f a13d b2c9 08bd 035f 66bd
00000040: 4a1a ae3c 1bcb 433e ccd4 323e 085f 12be
00000050: 26f0 833e 0e0d 4cbd 9248 2bbe 525e d13c
00000060: 398d 513d 9957 3c3d 3a53 bebb 93fd f63d
00000070: 9414 ce3d 34ab c3bd fd3a 303d d5c0 70bd
00000080: ed94 253d ffe4 debd eb39 06be a342 a33d
00000090: a6f6 be3d 3827 1d3e a5d7 e6bc c5e6 b1bd
000000a0: afdf 803d 05d8 f03d 4d5a 00be 712a b53c
000000b0: 76d4 95bb 8b1e 19be 418a edbd eb02 00bd
000000c0: 44fc c9bd 61bf 99bd 9865 d1bd dc49 21bc
000000d0: c32f 8bbd 5415 9fbb d37d c93d 25d7 47bd
000000e0: 34a0 b9bd 2fc6 b0bd 2fd1 fa3d c01f d7bc
000000f0: afac 24be d68a a8bc 63e7 df3b f4a0 d5bd

gat1.att_src f4 [1, 4, 64]
0.24965811 0.036212884 -0.09987399 0.123963304 0.0967838 0.06226559 -0.006722152 0.05645116
0.25293875 0.047009956 0.08686654 -0.24327686 -0.04494287 0.24183011 -0.20138402 -0.06796091
0.16330361 0.09807538 -0.14374827 -0.034129795 0.1109685 -0.041841026 0.10711577 0.2557845
-0.06772529 0.09244835 -0.18579756 0.044582997 -0.18719214 -0.15771641 0.15216954 0.048541036
0.08657131 0.16795176 0.26076305 -0.19159444 -0.102976575 -0.090497546 -0.03786783 -0.079236805
0.15482664 0.16458711 0.18323916 0.088132955 0.062065765 -0.085283265 -0.1102249 -0.093302734
0.15475106 -0.0229464 0.21468571 0.081284806 -0.0742294 0.18383437 0.20081708 0.04976181
0.18040897 -0.21751083 0.1615253 0.23799168 0.08312464 -0.23025402 -0.11961604 -0.10914646
0.18344468 0.156283 0.098450504 0.069971204 -0.18776563 0.19051594 0.027133033 -0.076483734
-0.30610946 0.16017576 0.056762177 -0.040227577 -0.23684013 0.008940801 0.16167487 -0.05421834
-0.040518478 0.054422785 0.07791502 -0.24128954 0.16225426 -0.030672317 -0.20094527 -0.12773186
-0.049066518 -0.038370613 -0.05970319 -0.12711775 -0.12826066 0.22619401 0.035509557 0.026242383
0.068303816 -0.113187104 -3.4941026e-05 0.16189647 0.064595595 -0.026735978 -0.19773908 0.06648947
0.1900518 -0.00830342 0.1532709 0.24572682 -0.054550365 0.098725155 -0.2787346 -0.21763319
-0.18689139 -0.24703282 -0.22235793 0.11773203 -0.18503185 -0.014001429 -0.23244996 0.15614146
-0.029549483 0.08599541 0.21053877 0.048281536 -0.027653838 -0.15095833 -0.105340004 -0.09215968
0.10267874 0.18331382 0.17239825 -0.23878747 0.121939056 0.114152335 -0.0861117 0.25648937
-0.21217333 0.08080601 0.09541919 -0.1473002 0.19702777 -0.017710611 0.17193618 0.12515354
0.017881949 -0.13202456 -0.1436621 0.13583283 -0.18727322 0.041961446 0.17527966 -0.09299473
-0.07718701 0.017719124 -0.13577943 0.07768554 0.015354007 -0.19388981 -0.14493312 0.10057443
-0.24145055 0.14507845 0.19797173 0.12570524 0.10225693 -0.176171 -0.12647048 0.11276841
-0.06822501 -0.20030554 -0.16837035 0.28156027 -0.12110818 -0.075745925 0.07690525 -0.15223503
-0.14250883 -0.0015662867 0.16605438 -0.17174742 0.12254468 -0.19128487 0.16201618 -0.17544737
0.007877413 0.22777571 -0.064775646 -0.052068148 0.011560953 -0.25758818 -0.21225178 -0.14345956
0.11198834 0.04726976 0.16967568 -0.03339001 0.22993188 0.12065619 0.08248236 0.10579719
-0.11244505 0.24012554 0.14512442 -0.115687005 0.1300607 0.183148 0.117626205 0.23015752
0.22584338 -0.22855501 0.20086856 -0.12251311 -0.03461168 -0.1402552 -0.0758014 0.06887343
0.16987605 -0.098067604 0.08533763 0.09432642 0.19149908 0.13718599 0.1357708 -0.1131824
-0.06512994 0.04983479 -0.002745705 -0.037574835 0.15830928 -0.05019908 -0.19842073 -0.1133573
0.2340795 -0.2036597 -0.057982914 0.07172186 0.17883246 0.21808517 0.07210093 -0.06861176
0.16303667 -0.14960676 0.07507684 -0.0059058983 -0.20666628 0.1737609 -0.00022368683 0.03152337
0.11718698 0.24792208 -0.083178975 0.17930317 0.24430688 0.22351617 0.029910496 0.17524128
00000000: 60a6 7f3e f653 143d bc8a ccbd 79e0 fd3d
00000010: 9636 c63d 340a 7f3d 7f45 dcbb 5539 673d
00000020: 3081 813e 838d 403d 16e7 b13d 921d 79be
00000030: 0416 38bd 50a2 773e 9d37 4ebe 172f 8bbd
00000040: 1039 273e bfdb c83d bf32 13be afcb 0bbd
00000050: 7443 e33d 7f61 2bbd 835f db3d 30f6 823e
00000060: 8fb3 8abd 8f55 bd3d b741 3ebe a99c 363d
00000070: 4caf 3fbe 6980 21be 55d2 1b3e f7d2 463d
00000080: 4d4c b13d 8cfb 2b3e bc82 853e 5531 44be
00000090: 62e5 d2bd c756 b9bd 4c1b 1bbd e846 a2bd
000000a0: e08a 1e3e 8689 283e 0ca3 3b3e 0d7f b43d
000000b0: ac38 7e3d fea8 aebd 98bd e1bd 8115 bfbd
000000c0: 1077 1e3e 17fa bbbc 92d6 5b3e a678 a63d
000000d0: 9505 98bd 143f 3c3e fea2 4d3e 0ad3 4b3d
000000e0: 21bd 383e 29bb 5ebe e366 253e 17b4 733e
000000f0: 403d aa3d b6c7 6bbe 41f9 f4bd 2e88 dfbd
00000100: ecd8 3b3e a708 203e 6ba0 c93d 104d 8f3d
00000110: a245 40be 9c16 433e 1846 de3c 81a3 9cbd
00000120: 61ba 9cbe 1d05 243e 757f 683d acc5 24bd
00000130: 3886 72be 707c 123c 198e 253e 0d14 5ebd
00000140: b4f6 25bd 6dea 5e3d e991 9f3d 9b14 77be
00000150: fb25 263e 8344 fbbc 99c4 4dbe 24cc 02be
00000160: f9f9 48bd 812a 1dbd 558b 74bd 282b 02be
00000170: c356 03be 679f 673e 7872 113d 44fa d63c
00000180: dfe2 8b3d a4ce e7bd a48d 12b8 30c8 253e
00000190: b24a 843d 6905 dbbc 1d7c 4abe a22b 883d
000001a0: f09c 423e 110b 08bc 0cf3 1c3e d09f 7b3e
000001b0: 3470 5fbd 6a30 ca3d 4db6 8ebe 3cdb 5ebe
000001c0: 7560 3fbe 2cf6 7cbe ccb1 63be 7e1d f13d
000001d0: fd78 3dbe 4066 65bc 5d07 6ebe 8ce3 1f3e
000001e0: c211 f2bc 5d1e b03d 7a97 573e dcc2 453d
000001f0: 4d8a e2bc d294 1abe 80bc d7bd 37be bcbd
00000200: 3b49 d23d 9eb6 3b3e 2b89 303e b484 74be
00000210: 2fbb f93d b3c8 e93d 555b b0bd 9352 833e
00000220: f743 59be 9f7d a53d 236b c33d ddd5 16be
00000230: a6c1 493e d815 91bc 0a10 303e 4028 003e
00000240: 2a7d 923c 7231 07be 281c 13be c317 0b3e
00000250: 8dc4 3fbe c4df 2b3d 837c 333e 0574 bebd
00000260: 3914 9ebd b227 913c c309 0bbe 9919 9f3d
00000270: 5f8f 7b3c 0d8b 46be 5969 14be f7f9 cd3d
00000280: d03e 77be 728f 143e 1ab9 4a3e e0b8 003e
00000290: 156c d13d 2c66 34be 7a81 01be 20f3 e63d
000002a0: 8eb9 8bbd e51c 4dbe 4769 2cbe ab28 903e
000002b0: 9107 f8bd ae20 9bbd 8080 9d3d 80e3 1bbe
000002c0: d6ed 11be dc4b cdba 290a 2a3e 8ede 2fbe
000002d0: b5f8 fa3d 2ee0 43be 92e7 253e 7aa8 33be
000002e0: 4410 013c 093e 693e 18a9 84bd 6945 55bd
000002f0: 276a 3d3c 99e2 83be 8858 59be 10e7 12be
00000300: 255a e53d f09d 413d 76bf 2d3e f7c3 08bd
00000310: 4373 6b3e 981a f73d 83ec a83d 32ac d83d
00000320: 9749 e6bd 78e3 753e 7f9b 143e 4fed ecbd
00000330: a22e 053e 268b 3b3e 02e6 f03d 6aae 6b3e
00000340: 7d43 673e 530a 6abe 7db0 4d3e 27e8 fabd
00000350: fac4 0dbd 0f9f 0fbe c43d 9bbd 830d 8d3d
00000360: fdf3 2d3e abd7 c8bd 7fc5 ae3d 362e c13d
00000370: 5618 443e 7c7a 0c3e 8007 0b3e 2dcc e7bd
00000380: d962 85bd 911f 4c3d 49f1 33bb 12e8 19bd
00000390: d41b 223e 8d9d 4dbd ce2e 4bbe df27 e8bd
000003a0: 89b2 6f3e 2b8c 50be 7e7f 6dbd e9e2 923d
000003b0: db1f 373e b851 5f3e a7a9 933d 5384 8cbd
000003c0: 16f3 263e 8432 19be e3c1 993d 4486 c1bb
000003d0: 53a0 53be 61ee 313e 7a8d 6ab9 a61e 013d
000003e0: baff ef3d 49df 7d3e bd59 aabd 409b 373e
000003f0: 952b 7a3e 6ce1 643e db06 f53c 7372 333e

gat1.att_dst f4 [1, 4, 64]
-0.28744152 0.24853168 -0.5651074 0.0017367287 -0.13096358 -0.0996472 0.027859868 -0.28816703
-0.38470784 -0.22833797 0.096449174 -0.43888485 0.56173223 -0.13361542 -0.13424976 0.069443785
0.2954412 -0.35174146 -0.24356793 0.27178007 0.09039218 0.18544437 0.18743451 -0.033945125
0.487009 0.11633265 -0.18779515 0.018385805 -0.509591 0.4563871 -0.086857066 -0.29846692
-0.13995156 -0.12192368 0.34823087 0.12543511 -0.18350713 -0.30264592 -0.32607606 0.30873704
-0.43661472 0.19570662 -0.13088861 0.22606364 -0.29952273 -0.39537582 -0.2649159 -0.3245281
0.418267 -0.38420984 0.4243254 -0.17131473 0.28662267 -0.17341931 -0.09357318 0.27303582
-0.2587111 -0.14782834 0.1607317 0.44363055 0.2614861 -0.24744686 0.06474988 -0.09817556
0.29824895 -0.20375472 -0.26725754 0.13173027 0.11700877 0.108005844 0.2444949 0.10936399
-0.06995564 0.040047724 -0.2308738 -0.2794308 0.16936445 -0.05160106 0.24390255 0.085009165
-0.25938186 -0.036695145 -0.15640113 -0.09658843 0.10704406 0.27761734 -0.06775154 0.091055006
0.20484918 0.15607665 0.23291254 0.44204345 -0.06643035 0.0033392098 0.0966703 0.21799462
0.0465373 -0.046952046 0.2443733 -0.0819517 -0.23472069 -0.09431605 0.11894073 -0.17825101
0.057919264 0.027417203 -0.051962487 -0.026703773 0.045214146 0.16030636 0.008930005 -0.02356369
0.2577767 -0.09148354 0.21255906 0.008175797 0.07073252 0.33963066 -0.26901266 -0.10925886
0.008928517 0.043039016 -0.112871036 -0.18234134 0.03908595 -0.030778129 0.25546297 0.20465904
-0.028782949 0.32980946 0.43220118 -0.31981614 0.19040067 -0.337664 -0.19110064 0.3269608
0.05930465 -0.11121523 -0.16753131 0.04457158 -0.24019338 0.1469908 -0.028051345 0.1695204
0.015011836 -0.09432855 -0.08665877 0.0030671542 -0.27919522 0.10733901 0.038845804 -0.22244139
-0.06438998 -0.40926152 0.2230835 0.3624467 -0.25777483 -0.30199623 0.24058858 -0.080146
-0.027921477 -0.008562345 -0.24759077 0.22050144 0.33861458 0.11743477 -0.06527049 0.08406303
-0.1571412 -0.17526175 0.26481515 0.06362196 -0.007885521 -0.18839537 0.016699443 0.2622149
-0.40187868 -0.1716 -0.2793108 0.10107648 -0.12686838 -0.20969751 -0.19690372 -0.30367935
0.076519504 -0.07224097 -0.16581558 0.20324653 -0.030436669 -0.14701232 0.062873624 -0.16402894
-0.1503838 0.050635375 0.019230634 -0.29965 0.316415 -0.14346251 0.17947844 -0.15796793
-0.025635358 0.19036382 0.22759596 0.36352673 -0.2161072 -0.120738976 -0.22389518 0.2074683
0.27489343 -0.12627584 0.117056124 -0.30232581 -0.049327716 -0.05228753 0.31442678 0.17259936
-0.32596868 -0.2621119 0.06889691 0.24005081 0.27742198 0.31049848 0.21940629 -0.07030561
0.20106618 0.14274046 0.26173982 -0.049653854 -0.1992403 0.13086185 0.09656427 -0.41520357
-0.036562383 0.22887008 0.08693534 0.098336875 -0.25161457 -0.0048185103 -0.02566565 -0.30032727
-0.36049062 0.34970078 0.25135416 0.32086414 -0.33009186 0.060517877 -0.088243894 -0.09389121
-0.22215752 -0.18417206 -0.2655845 0.1289799 0.1426813 0.13560396 0.08844175 -0.31226555
00000000: 892b 93be 177f 7e3e e1aa 10bf f2a2 e33a
00000010: 511b 06be d513 ccbd 613a e43c a18a 93be
00000020: 6df8 c4be 6ed1 69be 2587 c53d 84b5 e0be
00000030: afcd 0f3f 7bd2 08be c578 09be 8b38 8e3d
00000040: 1244 973e 7517 b4be df69 79be c226 8b3e
00000050: 891f b93d 21e5 3d3e d5ee 3f3e 0b0a 0bbd
00000060: 3e59 f93e d03f ee3d 5f4d 40be d49d 963c
00000070: 8e74 02bf 92ab e93e 1ee2 b1bd a8d0 98be
00000080: 764f 0fbe 1fb3 f9bd 514b b23e 1072 003e
00000090: 4be9 3bbe 68f4 9abe 71f3 a6be c812 9e3e
000000a0: f78b dfbe 5167 483e aa07 06be 3a7d 673e
000000b0: 0b5b 99be b36e cabe 0fa3 87be 8c28 a6be
000000c0: 1827 d63e 27b7 c4be 2e41 d93e 216d 2fbe
000000d0: 35c0 923e d594 31be 4ca3 bfbd 5acb 8b3e
000000e0: c875 84be 5060 17be da96 243e 8b23 e33e
000000f0: 82e1 853e b662 7dbe 969b 843d 4510 c9bd
00000100: 16b4 983e 14a5 50be fbd5 88be 4de4 063e
00000110: 4ba2 ef3d 2b32 dd3d df5c 7a3e 3afa df3d
00000120: e744 8fbd 1509 243d 2e6a 6cbe 8e11 8fbe
00000130: e06d 2d3e a25b 53bd 97c1 793e 4919 ae3d
00000140: b3cd 84be a64d 16bd 9e27 20be 28d0 c5bd
00000150: eb39 db3d dc23 8e3e 52c1 8abd 0c7b ba3d
00000160: fcc3 513e 8fd2 1f3e a080 6e3e 8553 e23e
00000170: a30c 88bd a5d6 5a3b 14fb c53d fb39 5f3e
00000180: e59d 3e3d ca50 40bd ff3c 7a3e 4bd6 a7bd
00000190: 9f5a 70be c628 c1bd 3397 f33d 6f87 36be
000001a0: c03c 6d3d 0b9a e03c 9ed6 54bd dfc1 dabc
000001b0: 7832 393d 5a27 243e 284f 123c a408 c1bc
000001c0: 4ffb 833e b95b bbbd 15a9 593e c7f3 053c
000001d0: 36dc 903d 12e4 ad3e 07bc 89be 1cc3 dfbd
000001e0: ea48 123c ae49 303d ee28 e7bd b0b7 3abe
000001f0: 9718 203d 6a22 fcbc 0bcc 823e 2492 513e
00000200: 38ca ebbc c9dc a83e 7949 dd3e f1be a3be
00000210: 65f8 423e 4ce2 acbe e3af 43be 6867 a73e
00000220: 6fe9 723d cfc4 e3bd 548d 2bbe b090 363d
00000230: 41f5 75be c284 163e efcb e5bc c196 2d3e
00000240: 34f4 753c 542f c1bd 277a b1bd 4f02 493b
00000250: adf2 8ebe 8ed4 db3d c71c 1f3d adc7 63be
00000260: e5de 83bd ba8a d1be 0070 643e 9d92 b93e
00000270: 10fb 83be 409f 9abe da5c 763e 9623 a4bd
00000280: 95bb e4bc 1449 0cbc 6f88 7dbe 21cb 613e
00000290: e45e ad3e a481 f03d 89ac 85bd 3d29 ac3d
000002a0: 9fe9 20be d177 33be da95 873e 3b4c 823d
000002b0: 4632 01bc b7ea 40be 45cd 883c 0841 863e
000002c0: 0bc3 cdbe e9b7 2fbe d301 8fbe 2f01 cf3d
000002d0: c9e9 01be f2ba 56be 21a1 49be dc7b 9bbe
000002e0: 42b6 9c3d 13f3 93bd 8fcb 29be dc1f 503e
000002f0: 5256 f9bc 668a 16be e3c3 803d 34f7 27be
00000300: 36fe 19be 0a67 4f3d 9089 9d3c ba6b 99be
00000310: 2601 a23e d6e7 12be 32c9 373e 58c2 21be
00000320: 3e01 d2bc bcee 423e ea0e 693e 2d20 ba3e
00000330: 354b 5dbe ff45 f7bd c744 65be 9272 543e
00000340: d5be 8c3e 744e 01be 1fbb ef3d 73ca 9abe
00000350: dc0b 4abd 732b 56bd 8cfc a03e e3bd 303e
00000360: 5ee5 a6be 8833 86be d319 8d3d e1cf 753e
00000370: 410a 8e3e a8f9 9e3e 0bac 603e 63fc 8fbd
00000380: 4be4 4d3e 8e2a 123e c302 863e d761 4bbd
00000390: a605 4cbe a600 063e 7dc3 c53d 9095 d4be
000003a0: 70c2 15bd eb5c 6a3e 280b b23d d864 c93d
000003b0: a0d3 80be 98e4 9dbb c540 d2bc 7fc4 99be
000003c0: 3a92 b8be fb0b b33e 7eb1 803e 4e48 a43e
000003d0: cd01 a9be 98e1 773d 37b9 b4bd 094a c0bd
000003e0: 437d 63be 9a97 3cbe b1fa 87be 4f13 043e
000003f0: 0c1b 123e c4db 0a3e f320 b53d 45e1 9fbe

gat1.att_edge f4 [1, 4, 64]
0.16305831 0.28998414 -0.31661797 0.2519727 0.028713003 -0.32364404 0.17711407 0.18521424
0.26136732 0.14566557 -0.060390383 -0.022277454 0.11894845 0.25210047 -0.0056318417 -0.26650447
0.2477051 0.0028721152 0.09966493 0.15901855 0.26565138 0.0053837015 -0.3544256 0.24862725
0.27878365 -0.041122895 0.14134346 -0.34649196 0.084216975 0.0077648205 -0.13100915 0.22246023
0.0064188666 0.22448447 0.34579718 -0.20686296 0.12125756 -0.06375108 0.045227937 -0.09817758
0.25778508 -0.29818618 0.35149598 0.21921909 0.07007529 -0.1600427 0.037068088 -0.15513375
0.22938462 0.1384727 -0.06580149 -0.2764614 0.0023686315 -0.14885953 -0.2178572 -0.3009833
0.166203 0.3222299 0.2477601 0.023340475 0.26091126 -0.028588032 0.3508457 -0.24659052
0.30493805 -0.21491879 0.03451482 -0.10534603 0.12389237 -0.07608745 -0.19269818 0.3237147
-0.28361884 -0.23533542 0.24759455 0.32368556 0.2271229 0.25082693 -0.011611795 -0.13035128
0.13456345 4.6276637e-06 0.03481102 -0.044771142 -0.012850293 -0.024937762 -0.13515607 -0.16550551
0.06151174 0.2997861 -0.13887072 -0.019360058 -0.08638473 0.29915294 -0.16747291 0.06391485
-0.08915812 0.2680468 -0.30590668 0.12687588 0.1017183 -0.052728962 0.0912337 -0.30589235
0.23358388 -0.11563788 -0.30064845 0.34222263 0.13868177 0.08965283 -0.18880266 0.08552294
-0.31774783 -0.21592142 0.0122839315 -0.08709893 -0.0027962674 0.08160469 -0.26285574 -0.057046834
0.13236636 0.05285039 -0.17430127 -0.20434406 0.1335642 0.064431556 0.13216291 0.107871205
-0.049548037 -0.06727367 0.27760303 0.21713407 0.28151798 -0.06742994 0.24712005 0.024836129
-0.23106535 0.1034424 -0.2833647 -0.25428846 0.24122065 -0.18302208 -0.21510951 0.1783647
0.09321196 0.014930873 -0.17490183 0.16585599 0.20618919 0.13763514 -0.2572462 0.06838772
-0.0058035795 0.22622764 -0.20242387 -0.1342255 -0.09564354 -0.19464643 -0.092794225 -0.03973155
0.013500953 0.28901166 0.23720852 -0.06576366 0.24741776 0.27263328 0.11821433 0.24288295
0.2466024 0.28002292 0.07095091 0.084528565 -0.19751813 -0.013438764 -0.12142801 -0.18512994
-0.22813028 -0.1821902 0.07735689 -0.07708478 -0.23335837 -0.066770755 -0.17901793 -0.050197832
-0.17512117 -0.020713378 -0.18147397 -0.08845163 0.2917311 -0.06347118 -0.18119742 -0.06769087
0.030375373 -0.15137212 0.018934928 -0.16704698 0.014269082 0.12701437 0.2275842 -0.1276302
-0.085213654 -0.2595264 0.1493373 0.21797803 -0.051625103 -0.13238183 0.07952411 0.18503833
-0.127205 -0.037407506 -0.24548045 0.059081547 -0.23106936 0.019644115 -0.11769203 0.15323356
0.19797398 -0.14579318 0.044704035 0.2937309 -0.091074444 0.1185481 0.060512654 0.18593346
0.15970626 0.09888502 0.18122973 0.14461562 0.23077723 -0.24954456 -0.0693217 0.1630498
-0.13619903 -0.034222975 0.10186406 0.27453977 0.013778961 0.22142485 -0.29224232 -0.07336003
0.073883094 -0.08452731 -0.27194715 -0.09455842 0.046422597 -0.11271196 0.035203487 0.08742319
-0.15216683 0.13159066 -0.12196517 0.10889513 0.0527863 -0.29594344 0.027801553 0.29818407
00000000: c2f8 263e cd78 943e c01b a2be 9102 813e
00000010: 8837 eb3c acb4 a5be 645d 353e cda8 3d3e
00000020: f0d1 853e 5b29 153e e85b 77bd 357f b6bc
00000030: 3f9b f33d 5013 813e 508b b8bb 4673 88be
00000040: 68a6 7d3e 193a 3c3b 201d cc3d c2d5 223e
00000050: 7503 883e c369 b03b 4677 b5be 2498 7e3e
00000060: bbbc 8e3e 7b70 28bd 57bc 103e 6567 b1be
00000070: f379 ac3d 0970 fe3b 4327 06be 9dcc 633e
00000080: 5b55 d23b 42df 653e 540c b13e e2d3 53be
00000090: e255 f83d ed8f 82bd ee40 393d 5411 c9bd
000000a0: 68fc 833e dcab 98be 48f7 b33e f87a 603e
000000b0: a283 8f3d 3ce2 23be b5d4 173d 62db 1ebe
000000c0: cde3 6a3e cacb 0d3e eec2 86bd 598c 8dbe
000000d0: 0b3b 1b3b a26e 18be f515 5fbe 7c1a 9abe
000000e0: 1f31 2a3e 51fb a43e d3b4 7d3e 8634 bf3c
000000f0: 2996 853e 7331 eabc 0ca2 b33e 3a82 7cbe
00000100: d720 9c3e ac13 5cbe 695f 0d3d a9bf d7bd
00000110: 48bb fd3d bdd3 9bbd ac52 45be efbd a53e
00000120: 7d36 91be c5fb 70be 6d89 7d3e 1dba a53e
00000130: e892 683e 636c 803e 663f 3ebc ce7a 05be
00000140: 00cb 093e 5447 9b36 0096 0e3d f261 37bd
00000150: 098a 52bc 474a ccbc 5a66 0abe 477a 29be
00000160: bcf3 7b3d 907d 993e 2034 0ebe fc98 9ebc
00000170: 7aea b0bd 932a 993e 057e 2bbe cae5 823d
00000180: 8898 b6bd 6e3d 893e cd9f 9cbe c0eb 013e
00000190: af51 d03d 53fa 57bd bcd8 ba3d ec9d 9cbe
000001a0: 9d30 6f3e 8ed3 ecbd 98ee 99be ce37 af3e
000001b0: 9802 0e3e e79b b73d 7c55 41be a726 af3d
000001c0: d8af a2be 811a 5dbe 8b42 493c ec60 b2bd
000001d0: 9541 37bb 5c20 a73d 0795 86be f1a9 69bd
000001e0: 0c8b 073e a779 583d 087c 32be 923f 51be
000001f0: 0ec5 083e b1f4 833d b755 073e 94eb dc3d
00000200: e2f2 4abd c7c6 89bd fc21 8e3e 6558 5e3e
00000210: 2023 903e b518 8abd 0a0d 7d3e 2375 cb3c
00000220: 659c 6cbe 9cd9 d33d 2e15 91be 1932 82be
00000230: 8c02 773e 246a 3bbe ab45 5cbe 3ca5 363e
00000240: e9e5 be3d 9fa0 743c 7719 33be 27d6 293e
00000250: 4223 533e 3af0 0c3e c6b5 83be dc0e 8c3d
00000260: f42b bebb 38a8 673e 3448 4fbe 6972 09be
00000270: c3e0 c3bd 6551 47be e60a bebd 8dbd 22bd
00000280: 1a33 5d3c 56f9 933e cae6 723e 19af 86bd
00000290: 155b 7d3e 9796 8b3e 5b1a f23d 4fb6 783e
000002a0: 5785 7c3e 2a5f 8f3e b64e 913d 501d ad3d
000002b0: 3142 4abe 432e 5cbc 40af f8bd b492 3dbe
000002c0: fc9a 69be 1190 3abe 4a6d 9e3d a0de 9dbd
000002d0: 7ff5 6ebe 1bbf 88bd 7a50 37be 3e9c 4dbd
000002e0: f752 33be 1aaf a9bc 50d4 39be 2126 b5bd
000002f0: c75d 953e 2efd 81bd d18b 39be 83a1 8abd
00000300: c6d5 f83c 4b01 1bbe 6c1d 9b3c 5d0e 2bbe
00000310: dec8 693c 0e10 023e d50b 693e 7eb1 02be
00000320: 7f84 aebd a5e0 84be e1eb 183e a235 5f3e
00000330: d874 53bd 1a8f 07be 89dd a23d b07a 3d3e
00000340: 0742 02be 9d38 19bd 3a5f 7bbe 7eff 713d
00000350: 729d 6cbe b2ec a03c 8508 f1bd 42e9 1c3e
00000360: b1b9 4a3e cf4a 15be 941b 373d e663 963e
00000370: 3d85 babd 59c9 f23d 1edc 773d 5765 3e3e
00000380: 0a8a 233e 3b84 ca3d 4994 393e 1e16 143e
00000390: de50 6c3e 9c88 7fbe 89f8 8dbd 87f6 263e
000003a0: c277 0bbe 642d 0cbd 1b9e d03d 7a90 8c3e
000003b0: 27c1 613c 32bd 623e c9a0 95be c93d 96bd
000003c0: 0550 973d a81c adbd a83c 8bbe d8a7 c1bd
000003d0: 9f25 3e3d 87d5 e6bd 8831 103d ee0a b33d
000003e0: 9fd1 1bbe b4bf 063e e0c8 f9bd 6904 df3d
000003f0: 7336 583d e685 97be 15c0 e33c 95ab 983e

gat1.bias f4 [64]
-0.012315662 -0.016223017 -0.043322098 -0.040619608 -0.04072011 0.05705229 -0.04022943 -0.0506059
-0.053696398 -0.019580808 -0.03875175 -0.048969466 0.05049857 -0.013041889 0.025203431 3.1739863e-05
-0.07557312 0.065757036 0.041653026 -0.042705353 -0.006027883 0.0032051632 -0.055894624 0.03268486
0.07874317 0.033658125 -0.020936184 -0.04877483 -0.02962941 -0.061974347 -0.01433307 -0.014003329
0.06935758 -0.03714396 0.04067805 -0.03025489 -0.04523396 -0.066054285 -0.012464136 0.038733605
-0.052882344 -0.046488527 -0.041860566 0.057240717 -0.043635625 -0.04409039 0.062229864 -0.016385166
-0.03558778 -0.06268197 0.0019942618 -0.08229587 0.06766342 -0.029140918 0.0015623055 0.0065919515
-0.031892065 0.0075719217 0.07025843 -0.027660726 -0.072074614 -0.028520178 -0.049779832 -0.02079037
00000000: a1c7 49bc 22e6 84bc 8372 31bd bf60 26bd
00000010: 21ca 26bd a9af 693d 9dc7 24bd 2248 4fbd
00000020: c1f0 5bbd ee67 a0bc 28ba 1ebd 3594 48bd
00000030: 97d7 4e3d a6ad 55bc 6d77 ce3c 6b20 0538
00000040: 14c6 9abd a0ab 863d 5d9c 2a3d cfeb 2ebd
00000050: 8c85 c5bb b70d 523b c3f1 64bd 8fe0 053d
00000060: 1944 a13d 1add 093d 5c82 abbc 1ec8 47bd
00000070: 60b9 f2bc d0d8 7dbd 41d5 6abc 386e 65bc
00000080: 590b 8e3d 4424 18bd 079e 263d 1ad9 f7bc
00000090: 3f47 39bd 7847 87bd 6036 4cbc 21a7 1e3d
000000a0: 289b 58bd c16a 3ebd fc75 2bbd 3e75 6a3d
000000b0: 45bb 32bd 2098 34bd bee4 7e3d 2f3a 86bc
000000c0: 7ec4 11bd 685f 80bd 29b2 023b bd8a a8bd
000000d0: 1f93 8a3d efb8 eebc 46c6 cc3a 4c01 d83b
000000e0: 41a1 02bd e21d f83b a7e3 8f3d bf98 e2bc
000000f0: db9b 93bd 26a3 e9bc f0e5 4bbd 9150 aabc

gat1.lin.weight f4 [256, 64]
0.07871186 -0.15595768 0.07131316 0.037650593 0.03706012 0.014347967 -0.025625927 -0.07910926
-0.104561195 0.038892478 0.16069424 -0.06270252 -0.0058709746 -0.051327497 0.071903445 0.010625029
-0.08928343 -0.18069568 -0.08574263 0.005034884 -0.008595812 -0.049721964 0.020779373 -0.016354533
0.07460127 -0.09384419 0.06692166 -0.13783911 -0.13227864 -0.058102902 0.039978232 -0.05089102
-0.20072328 -0.030496014 -0.061548404 0.08695089 -0.05672026 -0.036065146 -0.046258993 -0.051181506
-0.063767545 -0.06345856 -0.010895589 0.06460845 0.10462703 0.07043361 0.12273711 -0.12025361
0.15582749 -0.08157674 -0.02929542 -0.15269765 0.052334476 -0.06413087 -0.07576554 -0.06714981
0.058201715 0.063567996 6.1155006e-06 -0.08180598 -0.06630536 0.03303175 -0.044269998 -0.062021777
0.10571513 -0.08193237 0.056834668 0.07355275 -0.1271034 -0.07719282 -0.10940462 0.072635666
-0.16147272 0.0022199692 -0.0400933 -0.036661018 -0.08195985 -0.050086316 -0.12797095 -0.035559352
0.021783244 0.040290564 0.018717036 -0.060485 0.07796544 0.068338364 -0.108721286 0.10928322
-0.044198062 -0.02596233 -0.1367985 0.04302028 0.04907466 -0.0023591851 0.04484408 -0.07565394
0.09570202 0.0808345 -0.05346381 0.08367605 -0.064827025 -0.06333829 -0.0107184015 0.058425855
0.00067775813 0.05051493 -0.08651875 0.02186395 -0.07140069 -0.0053901845 0.030980445 0.081425816
-0.007797527 0.028080672 0.04895313 -0.043037836 0.085737914 -0.1748757 -0.021093078 -0.077774726
-0.017465673 0.08802228 0.016704611 0.0069589852 -0.16785985 -0.0930695 -0.04356685 -0.059491605
0.051610474 -0.13306984 0.10835712 -0.013848959 0.059517063 0.053517673 0.061435156 -0.026342774
0.012041629 -0.0011143305 -0.0848281 -0.060372353 0.07243865 -0.07385919 -0.096655466 0.020194873
-0.030368822 0.042675566 -0.10061267 0.022091305 -0.054387473 -0.026007587 0.15146267 -0.0030127813
0.026137084 -0.11739325 -0.055334784 -0.08761178 -0.04714883 -0.0047614328 0.03619374 0.0723217
0.021723818 -0.08660911 -0.07216362 -0.0595203 -0.04546285 -0.03882843 -0.12398185 -0.12426618
-0.0073698265 -0.1258388 0.061068904 -0.012959777 0.0962097 0.051355295 -0.0053540193 -0.013762682
0.07226759 -0.120799996 0.05174711 -0.0891364 0.021324722 -0.041414004 0.05557113 0.016503152
0.0075289654 0.0034187175 -0.032273654 0.013813326 0.066797 0.06196954 -0.029678842 0.0045583905
0.021429004 0.018986918 0.043320887 0.03553044 -0.084931724 -0.07503316 -0.08160425 0.06026926
-0.09606074 0.048556134 0.04242742 0.08776031 0.08403675 -0.09639601 -0.04644971 0.13974015
0.045002144 0.08840596 0.10074274 0.07060376 -0.015326992 -0.010327172 0.05011954 -0.102754556
0.04888742 -0.12584332 0.09973469 0.060464546 -0.21890752 -0.037059385 0.018806404 -0.010753951
0.083844684 -0.039856263 0.1208358 -0.040156703 0.04233256 -0.07041487 -0.03642751 0.059993498
-0.08757602 -0.025940187 -0.099780224 -0.07224617 -0.008331346 0.06402167 -0.0030519643 0.017535679
0.16081007 0.05233264 0.12898314 -0.036044717 -0.054609876 -0.12407326 -0.10624025 -0.16272826
0.022414662 -0.072501756 -0.043185785 -0.091294274 0.112298176 -0.013688649 -0.06547467 0.042359173
00000000: af33 a13d 5fb3 1fbe a20c 923d 8237 1a3d
00000010: 5acc 173d bc13 6b3c 77ed d1bc 0904 a2bd
00000020: 2e24 d6bd b84d 1f3d 088d 243e 2e6a 80bd
00000030: 4e61 c0bb c83c 52bd 1d42 933d 9a14 2e3c
00000040: 3bda b6bd 4a08 39be d599 afbd abfb a43b
00000050: 73d5 0cbc 42a9 4bbd 8139 aa3c f1f9 85bc
00000060: 8dc8 983d 6231 c0bd 390e 893d b225 0dbe
00000070: 0d74 07be 4ffd 6dbd 37c0 233d 1a73 50bd
00000080: 678a 4dbe c7d2 f9bc 2e1a 7cbd 4f13 b23d
00000090: 8153 68bd 0cb9 13bd 127a 3dbd b3a3 51bd
000000a0: 8f98 82bd 90f6 81bd 6a83 32bc 6f51 843d
000000b0: b246 d63d 7f3f 903d 985d fb3d 8647 f6bd
000000c0: 3e91 1f3e b511 a7bd f3fc efbc c65c 1cbe
000000d0: ad5c 563d 0c57 83bd f72a 9bbd d785 89bd
000000e0: ec64 6e3d f02f 823d c033 cd36 e589 a7bd
000000f0: 1bcb 87bd 4d4c 073d 7554 35bd 8c0a 7ebd
00000100: 2d81 d83d 29cc a7bd 78cb 683d d3a2 963d
00000110: 6527 02be 4517 9ebd 880f e0bd 02c2 943d
00000120: 1b59 25be e77c 113b df38 24bd dd29 16bd
00000130: 91da a7bd 4f27 4dbd d10a 03be afa6 11bd
00000140: c672 b23c b807 253d 7854 993c 1fbf 77bd
00000150: 58ac 9f3d fcf4 8b3d 44a9 debd e1cf df3d
00000160: 0709 35bd f4ae d4bc e814 0cbe 0836 303d
00000170: 8302 493d 8f9c 1abb 6dae 373d 74f0 9abd
00000180: 6cff c33d 8f8c a53d defc 5abd 595e ab3d
00000190: 08c4 84bd 81b7 81bd 3c9c 2fbc f34f 6f3d
000001a0: 94ab 313a bee8 4e3d be30 b1bd 071c b33c
000001b0: 863a 92bd 25a0 b0bb b4ca fd3c 94c2 a63d
000001c0: 6682 ffbb 7009 e63c 1483 483d 7148 30bd
000001d0: 5c97 af3d 9e12 33be 64cb acbc 5b48 9fbd
000001e0: 2c14 8fbc 0645 b43d 1cd8 883c 3308 e43b
000001f0: 74e3 2bbe 399b bebd 2773 32bd 78ad 73bd
00000200: 8165 533d 7643 08be 56ea dd3d bee6 62bc
00000210: 2ac8 733d 5935 5b3d 6ea3 7b3d cdcc d7bc
00000220: 414a 453c ba0e 92ba 5bba adbd 0049 77bd
00000230: b75a 943d 7d43 97bd 4df3 c5bd b86f a53c
00000240: 09c8 f8bc 93cc 2e3d 040e cebd d3f8 b43c
00000250: 66c5 5ebd dd0d d5bc 0819 1b3e 1572 45bb
00000260: 701d d63c df6b f0bd baa6 62bd ce6d b3bd
00000270: 221f 41bd cb05 9cbb e33f 143d 661d 943d
00000280: 26f6 b13c 1e60 b1bd 85ca 93bd 8fcb 73bd
00000290: 4137 3abd 8f0a 1fbd 32ea fdbd 447f febd
000002a0: 967e f1bb e3db 00be 6323 7a3d 3f55 54bc
000002b0: 9709 c53d ee59 523d c570 afbb df7c 61bc
000002c0: 0801 943d fd65 f7bd c7f4 533d 258d b6bd
000002d0: 2fb1 ae3c bba1 29bd 8e9e 633d 9e31 873c
000002e0: 8ab5 f63b 900c 603b 6131 04bd 4a51 623c
000002f0: decc 883d c6d3 7d3d 0b21 f3bc 8d5e 953b
00000300: e18b af3c 748a 9b3c 3e71 313d 5e88 113d
00000310: aff0 adbd fcaa 99bd 2120 a7bd e6dc 763d
00000320: 7ebb c4bd cce2 463d 60c8 2d3d adbb b33d
00000330: 761b ac3d 456b c5bd 0d42 3ebd 0b18 0f3e
00000340: 2b54 383d 2f0e b53d 3652 ce3d b498 903d
00000350: 101e 7bbc 4d33 29bc 264a 4d3d fb70 d2bd
00000360: 2d3e 483d 12dd 00be b341 cc3d aca9 773d
00000370: 4b29 60be 95cb 17bd e30f 9a3c 5731 30bc
00000380: c3b6 ab3d 5240 23bd c378 f73d 5b7b 24bd
00000390: e864 2d3d ac35 90bd 0335 15bd bebb 753d
000003a0: 0e5b b3bd 8480 d4bc 9359 ccbd cdf5 93bd
000003b0: 3380 08bc cb1d 833d 7703 48bb fca6 8f3c
000003c0: 65ab 243e c05a 563d 2814 043e a0a3 13bd
000003d0: 9bae 5fbd 1f1a febd 7d94 d9bd 3da2 26be
000003e0: f49e b73c cd7b 94bd 94e3 30bd 7ef8 babd
000003f0: 96fc e53d 5b46 60bc 9517 86bd d080 2d3d
